cartpole.pth (torch, 72338 bytes, 6 tensors)

layer1.weight f4 [128, 4]
0	0x3ea3a244	0.31959736
1	0x3e986912	0.29767662
2	0xbf6051ed	-0.8762501
3	0xbeec4ed8	-0.46153903
4	0x3e024c99	0.12724532
5	0xbe45b119	-0.19305839
6	0x3f082d32	0.5319396
7	0xbe807bb1	-0.2509437
8	0xbeaabd07	-0.3334734
9	0xbc3d4ad9	-0.01155349
10	0x3ea4f54a	0.3221839
11	0x3e38d3dc	0.18049568
12	0xbeba882d	-0.3643202
13	0xbadfde07	-0.0017079719
14	0x3f1f4c19	0.6222549
15	0x3d1ea1b2	0.038728423
16	0x3e974b43	0.29549608
17	0xbed427d4	-0.41436636
18	0xbe9a8513	-0.30179653
19	0xbeaa60ab	-0.33276877
20	0xbcccf5d0	-0.025019556
21	0xbed61f3d	-0.41820708
22	0x3ee1a292	0.44069344
23	0x3eca1650	0.39470148
24	0xbeac6e6c	-0.33677995
25	0xbedb102a	-0.4278577
26	0xbdb6f78e	-0.08933936
27	0xbdf204bb	-0.118173085
28	0xbea84308	-0.3286364
29	0xbec71cbb	-0.38889107
30	0x3d49bd3c	0.049252734
31	0xbd8abcbc	-0.067742795
32	0xbe6b5828	-0.22982848
33	0xbed37f00	-0.4130783
34	0xbe8b056a	-0.27152568
35	0xbdc440b3	-0.09582653
36	0xbebf4131	-0.37354425
37	0x3ddd634a	0.108099535
38	0x3f254f4b	0.64574116
39	0x3e29f238	0.16596305
40	0xbe8e24d2	-0.27762467
41	0xbe988359	-0.2978771
42	0xbf0d58d6	-0.5521368
43	0xbc9d977f	-0.019237278
44	0x3cf246ef	0.02957484
45	0x3ef56441	0.4792805
46	0xbf31a137	-0.6938662
47	0xbe88204a	-0.26587135
48	0x3e6fa7af	0.2340381
49	0x3e37972b	0.1792876
50	0xbf052105	-0.5200351
51	0x3cc45f17	0.023971124
52	0x3e4402e3	0.19141726
53	0xbee6b814	-0.45062315
54	0xbf3b3ff5	-0.73144466
55	0xbd059487	-0.03261235
56	0xbe41466a	-0.18874517
57	0x3d41feb1	0.047362033
58	0xbe80b139	-0.2513521
59	0xbbfa581b	-0.0076398975
60	0x3f28e68d	0.6597679
61	0x3e9cebf1	0.3064876
62	0xbe7a4972	-0.2444208
63	0xbea8041d	-0.32815638
64	0x3f296568	0.6617036
65	0xbe225c47	-0.15855514
66	0xbf144212	-0.57913315
67	0xbe608f05	-0.21929558
68	0xbd406fab	-0.046981495
69	0xbc01be98	-0.007918976
70	0x3ebd6a25	0.36995044
71	0xbe0bc8f3	-0.13650875
72	0xbe1f8112	-0.1557658
73	0x3e8f3c9c	0.2797593
74	0x3f174cc0	0.59101486
75	0x3e893d97	0.26804802
76	0x3f0be97c	0.54653144
77	0x3eec0e81	0.46104816
78	0x3dc8656b	0.09784969
79	0xbe8e5430	-0.27798605
80	0x3e6b4903	0.2297707
81	0xbd94bcf4	-0.072626024
82	0x3ebf13db	0.37319836
83	0x3e0b58d0	0.13608098
84	0xbeec6a43	-0.4617482
85	0xbeccdb3d	-0.40011016
86	0x3e269e22	0.1627126
87	0x3e3de8dc	0.1854586
88	0xbde661cb	-0.11249121
89	0x3eac6219	0.33668593
90	0x3ef6f2b7	0.48232052
91	0x3ec28452	0.37991577
92	0xbeaf5430	-0.34243917
93	0x3e2b0e92	0.16704777
94	0x3d8b727d	0.06808946
95	0x3e922251	0.28541806
96	0xbe2d4054	-0.1691907
97	0xbe8eb217	-0.27870247
98	0x3e5cc0e0	0.21557951
99	0x3da61116	0.08108728
100	0x3e9a2098	0.30102992
101	0x3ead1106	0.3380205
102	0xbe7686fa	-0.24074927
103	0xbe58e4b1	-0.21180989
104	0xbca39d41	-0.019972445
105	0xbf0d7b78	-0.55266523
106	0xbf114994	-0.56752896
107	0xbedb31d6	-0.4281146
108	0xbe8126bf	-0.25224873
109	0xbdc90b83	-0.09816649
110	0xbe7bb761	-0.24581672
111	0xbe8afbf4	-0.2714535
112	0x3ea2ad71	0.3177295
113	0x3ed424cd	0.41434327
114	0x3e49e9dc	0.19718117
115	0x3e93ff48	0.28905702
116	0xbec1f46c	-0.37881792
117	0x3eb053e8	0.34439015
118	0x3e8c2256	0.27369946
119	0xbe917b75	-0.28414503
120	0xbdc7c2fd	-0.09753988
121	0x3e064cbe	0.13115212
122	0x3ec79eb2	0.38988262
123	0x3ecc2628	0.3987286
124	0xbe9e7611	-0.30949453
125	0x3e9b6102	0.3034745
126	0x3ed82ba8	0.42220807
127	0x3e4bbaa0	0.1989541
128	0x3c0aab93	0.008463758
129	0xbba1b258	-0.0049345903
130	0x3f2b14b5	0.6682847
131	0x3e56e5df	0.20986126
132	0xbe0538e9	-0.13009991
133	0x3d025a59	0.031824443
134	0xbc014509	-0.007889994
135	0xbe9a5ebc	-0.30150402
136	0x3e8f4431	0.27981713
137	0xbddb2e75	-0.1070222
138	0xbed516fd	-0.416191
139	0x3e3bbb4c	0.18333167
140	0x3e97464b	0.29545817
141	0xbd5e8410	-0.054325163
142	0xbe89aebd	-0.26891127
143	0x3e3c625b	0.18396895
144	0x3da03cfe	0.07824133
145	0xbeb7fb3c	-0.35933864
146	0xbdf04d87	-0.11733537
147	0xbda7ab75	-0.08187
148	0x3ebc2bc9	0.36752155
149	0x3e904158	0.28174853
150	0x3f0bd56a	0.5462252
151	0x3e7a85f5	0.24465163
152	0x3d4a2852	0.04935486
153	0x3e34409f	0.17602776
154	0xbe12cf4d	-0.14336891
155	0xbe57efa7	-0.21087514
156	0x3e67dba1	0.22642376
157	0xbed3d772	-0.4137531
158	0xbf267b6b	-0.6503207
159	0xbe0b461b	-0.13600962
160	0xbf093a62	-0.5360471
161	0xbeb9a706	-0.3626024
162	0x3ea8136c	0.32827318
163	0x3e2f5f82	0.17126277
164	0xbf10fb0f	-0.56633085
165	0xbee4be1a	-0.44676286
166	0xbf11538f	-0.56768125
167	0xbf000d01	-0.5001984
168	0x3eab2d0a	0.334328
169	0x3ebf0697	0.37309715
170	0x3dc15126	0.09439306
171	0x3e0ac154	0.13550311
172	0x3f0da004	0.5532229
173	0x3b94e0ba	0.004543391
174	0x3dfb09be	0.122577175
175	0x3ea114ac	0.31461084
176	0xbeea31b6	-0.4574105
177	0xbcd1a2de	-0.025590356
178	0x3e9bb435	0.30410925
179	0xbe8037ba	-0.25042516
180	0xbe16920f	-0.14704154
181	0xbe812d18	-0.25229716
182	0x3debf099	0.115205
183	0x3cc33262	0.023827735
184	0x3d6bd0aa	0.057572044
185	0xbed35d44	-0.41282094
186	0xbeb06bf9	-0.34457377
187	0xbcf51803	-0.029918676
188	0xbec05d84	-0.37571347
189	0x3eaac08b	0.33350024
190	0xbe1eef36	-0.15520939
191	0x3d60d399	0.054889295
192	0x3e43e1f3	0.19129162
193	0x3e7b7aa9	0.2455851
194	0x3e2c3f6c	0.16821069
195	0x3e72f58f	0.23726486
196	0xbdeb8a8b	-0.11501034
197	0x3e8f58ba	0.2799738
198	0x3c6bbfcf	0.014388992
199	0x3eaf75c3	0.34269533
200	0x3ee5f55b	0.44913754
201	0xbe94a30c	-0.29030645
202	0x3e9a46c5	0.30132118
203	0xbd7e246a	-0.062046446
204	0x3e661129	0.22467484
205	0xbee22f0d	-0.44176522
206	0xbf09f1be	-0.53884494
207	0x3e07688b	0.13223474
208	0xbe07a42d	-0.13246222
209	0xbd7c072c	-0.061530277
210	0xbf34a7e3	-0.70568675
211	0x3d184dfb	0.037183743
212	0xbedcdd0f	-0.43137404
213	0xbee65ac3	-0.4499112
214	0x3d248f03	0.04017545
215	0xbea14403	-0.314972
216	0x3e890199	0.2675903
217	0xbec001c1	-0.37501338
218	0xbf097d39	-0.537067
219	0xbe0b1014	-0.13580352
220	0x3eb06e18	0.34458995
221	0x3e0eb7b1	0.1393726
222	0x3b1ffae7	0.0024411024
223	0xbd0af72e	-0.033927135
224	0xbe806a0f	-0.25080916
225	0x3eb3a93a	0.35090047
226	0x3ee22f70	0.44176817
227	0x3edb95f6	0.4288785
228	0xbbd984ac	-0.00663813
229	0xbb2e6ca3	-0.0026615045
230	0x3ec6ee80	0.38853836
231	0xbdb179cb	-0.08665808
232	0xbe5f6e7f	-0.21819495
233	0x3eafd102	0.34339148
234	0x3f058a4e	0.5216416
235	0x3dcb2f1b	0.09921094
236	0x3e18595e	0.14877841
237	0x3e830fba	0.25597936
238	0xbf2a3811	-0.664918
239	0xbe661099	-0.22467269
240	0xbd775456	-0.060383163
241	0x3e8ecb01	0.27889255
242	0xbeb85f37	-0.36010143
243	0x3dfcf322	0.123510614
244	0x3db82b7f	0.08992671
245	0xbe92117c	-0.28528965
246	0xbf2d7651	-0.6775866
247	0x3d21378f	0.039359625
248	0x3d98be88	0.07458216
249	0xbd8187ba	-0.06324716
250	0x3c827ed3	0.015929615
251	0x3e8ec346	0.27883357
252	0xbea37bf5	-0.3193051
253	0xbeee5d28	-0.46555448
254	0x3dbea198	0.09308165
255	0xbe3555b0	-0.17708468

layer1.bias f4 [128]
0	0xbd35d066	-0.044388197
1	0x3ea09ee2	0.31371218
2	0xbed54bca	-0.41659385
3	0xbe94ba58	-0.2904842
4	0x3ede5cf5	0.43430296
5	0xbee348aa	-0.44391376
6	0xbebe8a88	-0.37215066
7	0xbe161485	-0.14656265
8	0x3ea994c3	0.3312131
9	0x3f18f873	0.59754103
10	0x3e89ffbc	0.26952922
11	0x3dc968d3	0.09834447
12	0x3f073583	0.5281603
13	0x3f18febb	0.5976369
14	0x3f29eb64	0.663748
15	0xbebaa010	-0.36450243
16	0xbe77d0e3	-0.24200778
17	0x3f0521a2	0.52004445
18	0x3f0909d7	0.5353064
19	0x3c8029a7	0.015644861
20	0xbea7c90c	-0.32770574
21	0xbde59808	-0.11210638
22	0x3f3a6517	0.728105
23	0xbec5f8bb	-0.3866633
24	0xbe85d9c5	-0.26142707
25	0xbeeb37a7	-0.45940897
26	0xbd499e51	-0.049223248
27	0xbead6a2c	-0.33870065
28	0xbd22b090	-0.039719164
29	0x3ef5e7c9	0.480284
30	0xbedb0c25	-0.42782703
31	0x3efc00b6	0.49219292
32	0xbea42d19	-0.32065657
33	0x3f105960	0.56386375
34	0x3f043e7f	0.5165786
35	0x3ec25188	0.37952828
36	0x3ed1437c	0.408718
37	0xbcaccbdd	-0.021093303
38	0xbef5ff07	-0.48046133
39	0x3ee5515c	0.44788635
40	0xbeba7b1b	-0.36422047
41	0x3e8c7faf	0.27441165
42	0x3f15b077	0.5847239
43	0x3f0caf06	0.54954565
44	0x3f2d19c0	0.67617416
45	0xbe9b35f2	-0.30314595
46	0x3eda3c36	0.42624062
47	0x3ed6c48f	0.41946837
48	0x3eb0c456	0.34524792
49	0x3f22bd8a	0.63570464
50	0xbe8b1c30	-0.27169943
51	0xbe8b87da	-0.27252084
52	0x3e361aa5	0.17783602
53	0x3ed461b2	0.41480786
54	0x3e8bfc49	0.27340916
55	0x3f104e6c	0.5636966
56	0xbead8599	-0.3389099
57	0x3f22e340	0.63628006
58	0x3f038180	0.51369476
59	0xbeeb6536	-0.45975655
60	0x3f109cf9	0.5648952
61	0x3f0204df	0.5078868
62	0xbea05ae9	-0.3131936
63	0x3ea472fa	0.3211897
64	0x3e6e0fb6	0.23248181
65	0x3eb1841d	0.34671107
66	0x3e9143a0	0.28371906
67	0xbe9ad12a	-0.30237705
68	0xbd4e339f	-0.0503422
69	0x3ea69476	0.32535142
70	0xbe5415d1	-0.20711447
71	0xbed03b4a	-0.40670234
72	0x3f00b3e6	0.50274503
73	0x3eb5e344	0.35524952
74	0xbebf9287	-0.3741648
75	0xbd310087	-0.043213394
76	0x3f11d098	0.56958914
77	0xbd75b29d	-0.059984792
78	0x3f263818	0.6492934
79	0x3f245498	0.6419158
80	0xbc13b661	-0.0090156505
81	0xbeb45153	-0.35218295
82	0x3ee6e351	0.45095304
83	0x3e3a5ff6	0.18200669
84	0x3ea0e5e3	0.3142539
85	0x3e926112	0.28589684
86	0x3f1f4ecf	0.6222963
87	0x3f2d2b62	0.6764432
88	0xbeb877b1	-0.36028817
89	0xbe0eeadd	-0.1395678
90	0xbea4158f	-0.32047698
91	0x3f2ee85c	0.683233
92	0x3ea4998d	0.321484
93	0xbf00f4f9	-0.503738
94	0x3ee62e97	0.4495742
95	0x3f17adf8	0.5924983
96	0x3f087887	0.5330891
97	0xbeb99f93	-0.36254558
98	0xbdb226eb	-0.08698829
99	0xbebfad3d	-0.37436858
100	0xbe5ded9a	-0.21672669
101	0xbef7bb94	-0.48385298
102	0xbec3827a	-0.38185483
103	0x3f0a3068	0.5398011
104	0xbdb1fa62	-0.08690335
105	0x3f15094f	0.5821733
106	0xbd6c6db6	-0.057721816
107	0x3ed51650	0.41618586
108	0x3ecaf7e5	0.39642254
109	0xbea920fd	-0.3303298
110	0xbe28ad9d	-0.16472478
111	0xbe070729	-0.13186325
112	0xbdc580b5	-0.096436895
113	0x3f28c7e5	0.65930015
114	0xbe3c3ed9	-0.1838335
115	0x3f245463	0.64191264
116	0x3ef78e40	0.48350716
117	0x3f33564b	0.7005355
118	0x3ec8f210	0.3924718
119	0x3f3262af	0.6968183
120	0x3e697034	0.22796708
121	0xbdcb6611	-0.09931577
122	0xbeebc033	-0.46045074
123	0xbeb075e6	-0.3446495
124	0xbed4efb8	-0.4158914
125	0x3f2dc259	0.67874676
126	0xbf0abc2d	-0.54193383
127	0xbe2a7b4a	-0.16648594

layer2.weight f4 [128, 128]
0	0xbd9550bf	-0.07290792
1	0xbd43a67a	-0.047766186
2	0xbd74cf58	-0.05976805
3	0xbd7b8be3	-0.061412703
4	0xbd7a4f8d	-0.06111102
5	0xbd1823e7	-0.037143614
6	0x3b8d82ad	0.0043185563
7	0xb994e508	-0.000283994
8	0x3b059f9d	0.0020389326
9	0x3c8dfebd	0.017333383
10	0xbc712f81	-0.0147207985
11	0x3d4276e9	0.047476683
12	0x3c34fd4f	0.011046722
13	0xbc5c0d50	-0.013430908
14	0xbc085756	-0.008321604
15	0xbd03d336	-0.03218385
16	0xbc0c8f83	-0.008579138
17	0xbce24c31	-0.027624222
18	0x3c90f2eb	0.017693957
19	0xbcb04adc	-0.02152007
20	0x3d43dec1	0.047819857
21	0x3c1bbd38	0.0095055625
22	0xbcfd23c1	-0.030900838
23	0x3d5e3db8	0.05425808
24	0x3d87fb1d	0.06639693
25	0xbd304944	-0.04303862
26	0xbd6f9df5	-0.05850025
27	0xbce667a9	-0.0281256
28	0xbd78a196	-0.060700975
29	0x3a99b94b	0.0011728195
30	0xbd66644f	-0.056248005
31	0xbb79b091	-0.0038099627
32	0x3d8dfe0b	0.069332205
33	0xbc162134	-0.00916319
34	0xbd2949b3	-0.04133005
35	0xbd935802	-0.071945205
36	0x3d56d41c	0.052448377
37	0xbd179684	-0.037008777
38	0xbb5917c5	-0.003312574
39	0x3ac461f4	0.0014982806
40	0xbc54f04c	-0.012996744
41	0x3d66cb90	0.056346476
42	0x3d86d611	0.06583799
43	0xbd259d41	-0.040433172
44	0xbc508841	-0.012727798
45	0x3d46154f	0.048360165
46	0xbd32a744	-0.04361655
47	0xbd238577	-0.039922204
48	0x3c1c20c5	0.009529297
49	0xbbc6e190	-0.0060693696
50	0x3d1fa275	0.03897329
51	0xbd84dc69	-0.064873524
52	0xbc6d771c	-0.01449373
53	0x3d8a93c8	0.06766468
54	0xbc8c68b6	-0.017139774
55	0x3b5706bb	0.0032810408
56	0x3c5de6e6	0.01354382
57	0xbd2bee0e	-0.041975074
58	0x3cbafa4f	0.022824435
59	0xbd6e04c1	-0.058110002
60	0x3d41ba3e	0.047296755
61	0x3c223552	0.009900408
62	0x3bcc04c2	0.006226153
63	0x3d95619f	0.0729401
64	0xbd4833dc	-0.048877582
65	0x3cd837b0	0.026393741
66	0xbd147435	-0.036243636
67	0xbd8286c0	-0.06373358
68	0xbd9134cb	-0.070901476
69	0x3d5440db	0.051819663
70	0xbbf0b10d	-0.007345325
71	0x3d393b0f	0.04522234
72	0xbce1e0b3	-0.027572965
73	0x3d044d5f	0.03230035
74	0xbd15f127	-0.036606934
75	0xbd938492	-0.0720302
76	0xbc5f5df5	-0.013633241
77	0xbcc4a158	-0.024002716
78	0x3c38441a	0.011246705
79	0x3ca160c9	0.019699471
80	0x3cd2bcbd	0.025724763
81	0x3d00a42b	0.031406563
82	0x3d2315b0	0.039815605
83	0xbd1fe5e1	-0.03903759
84	0xbd89512f	-0.06704938
85	0x3d5e1a16	0.054224096
86	0x3cc41c18	0.023939177
87	0x3aaf4324	0.001337145
88	0xbd67c7bb	-0.056586962
89	0x3b0a05d8	0.0021060612
90	0x3c22afca	0.009929607
91	0xbd7dbcb4	-0.06194754
92	0xbd27485f	-0.040840503
93	0xbd891ccb	-0.06694945
94	0xbd82c365	-0.06384925
95	0x3d25dcb6	0.04049369
96	0x3c521b00	0.01282382
97	0xbd79ef03	-0.061018955
98	0xbceb47dd	-0.02872079
99	0xbd8732e1	-0.06601501
100	0xbc634346	-0.01387102
101	0xbd7868e5	-0.06064691
102	0x3d80ea1c	0.06294653
103	0x3cefd971	0.029278489
104	0xbc843ffc	-0.016143791
105	0x3d13b388	0.036059886
106	0x3d471c7e	0.048611157
107	0xbd323979	-0.04351184
108	0xbd551d7a	-0.052030064
109	0xbccfb91d	-0.025356824
110	0x3cdbff60	0.02685517
111	0xbd5bc80b	-0.053657573
112	0xbd7271e8	-0.05919066
113	0x3d88be28	0.066768944
114	0xbc8355e9	-0.016032176
115	0xbd5461fe	-0.051851265
116	0xbd2d9f63	-0.04238833
117	0xbd524beb	-0.051341932
118	0xbd12477a	-0.035712697
119	0xbc67fc0e	-0.014159216
120	0xbd4c2975	-0.049844224
121	0xbcbe309c	-0.023216538
122	0x3cf85c9d	0.030317599
123	0xbca25704	-0.019816883
124	0x3d6e78e8	0.058220774
125	0x3b9a4435	0.004707838
126	0x3d603b8b	0.054744285
127	0x3d5511ee	0.052019052
128	0x3d056cdc	0.03257452
129	0x3e26d3dd	0.16291757
130	0x3e4ba2e2	0.19886354
131	0x3ebe2eb1	0.37144998
132	0x3d78306a	0.060593046
133	0x3cd18b0d	0.025579
134	0x3df9cf23	0.12197711
135	0x3dccd08d	0.100007154
136	0x3da150fe	0.07876776
137	0x3d7e65af	0.06210869
138	0x3d5138f8	0.05107972
139	0x3b16be40	0.0023001581
140	0xbe0eecd2	-0.13957527
141	0xbb449c8a	-0.003000053
142	0x3d0feb99	0.035136793
143	0xbd10ac79	-0.035320733
144	0xbd6501a7	-0.05590978
145	0xbd80bb95	-0.062857784
146	0xbdd79ed3	-0.1052834
147	0xbe0777f9	-0.1322936
148	0x3cc0fc2f	0.02355775
149	0xbb9df509	-0.00482047
150	0xba6f84ea	-0.0009136932
151	0x3e11a4a6	0.14222965
152	0x3d4f0e49	0.050550733
153	0xbdab7aec	-0.08373055
154	0x3e9a7e90	0.30174685
155	0x3ec53f5e	0.38524908
156	0x3dd4c44c	0.10389003
157	0xbc9d11bd	-0.019173497
158	0x3e2b6379	0.16737165
159	0xbddbf10f	-0.10739338
160	0x3b7d890c	0.0038686423
161	0x3b0cc5aa	0.0021480122
162	0xbd815a52	-0.06316055
163	0x3c87e640	0.016589284
164	0xbd144365	-0.036197085
165	0xbd71ed0a	-0.05906395
166	0xbc282aef	-0.010264142
167	0x3d8b0d28	0.06789619
168	0x3e0f201f	0.13977097
169	0x3e065900	0.13119888
170	0xbe1d984d	-0.1539013
171	0xbdb9f335	-0.09079591
172	0x3dc4e61e	0.09614204
173	0x3e64e723	0.22353797
174	0x3ba6640d	0.005077845
175	0xba2ef2a9	-0.00066737324
176	0xbe9ef153	-0.3104349
177	0x3d03d4fe	0.032185547
178	0xbdc91da4	-0.098201066
179	0x3daafa52	0.08348526
180	0xbbfbb1df	-0.007681116
181	0x3c563b81	0.01307571
182	0x3c24c8dc	0.010057654
183	0x3c0ceeca	0.008601854
184	0x3d88761a	0.06663151
185	0x3d09a317	0.0336028
186	0xbc358429	-0.011078873
187	0xbcd7a4b4	-0.026323654
188	0xbdce7b99	-0.10082168
189	0x3d5e68ff	0.05429935
190	0x3e02965e	0.12752673
191	0x3d08a93c	0.03336452
192	0xbe4c89aa	-0.1997439
193	0x3cfcbc65	0.030851552
194	0x3ceb84fc	0.028749935
195	0x3cb6b7cf	0.022304444
196	0x3e089647	0.13338576
197	0xbcf0984a	-0.029369492
198	0xbd179341	-0.037005667
199	0x3dbb4468	0.09143907
200	0xbd3d7b48	-0.04626015
201	0xbed65d1b	-0.4186791
202	0x3e2fdae7	0.17173348
203	0xbd2cc1cc	-0.042177007
204	0xbdfebba7	-0.124381356
205	0xbdd7f269	-0.10544283
206	0xbcd1369c	-0.025538735
207	0x3d41dbef	0.047328886
208	0xbe767a13	-0.24070005
209	0x3d0db046	0.034591936
210	0xbe174c52	-0.14775208
211	0xbd3acbf3	-0.045604657
212	0x3e1e3a2c	0.15451878
213	0x3d670a19	0.056406114
214	0x3b86de80	0.0041158795
215	0xbd7f392d	-0.062310386
216	0x3d5346f3	0.051581334
217	0x3eb4679b	0.35235295
218	0x3ea6cac2	0.32576567
219	0xbdfa43c8	-0.122199595
220	0xbd0e0b75	-0.034678895
221	0x3cb6f68f	0.022334365
222	0xbd4cb432	-0.049976535
223	0xbdce5bdf	-0.10076117
224	0x3c8ddfe8	0.01731868
225	0x3d67ccf7	0.056591954
226	0x3df1fa6e	0.11815344
227	0x3e4158cd	0.18881531
228	0x3c0ec603	0.008714202
229	0x3de39824	0.11113003
230	0x3d1e3452	0.038624115
231	0xbd296807	-0.041358974
232	0x3ea78456	0.32718152
233	0xbc800806	-0.015628826
234	0xbcdb7190	-0.02678755
235	0x3dc4298d	0.09578238
236	0x3dbc835e	0.09204744
237	0xbd7ce3ae	-0.06174057
238	0x3d547787	0.051871803
239	0xbd3c35ae	-0.04594963
240	0x3d5418aa	0.051781334
241	0xbd67909b	-0.05653439
242	0xbd05d9b6	-0.03267833
243	0xbcc61d95	-0.024184028
244	0xbe8aa154	-0.2707621
245	0x3d26ad58	0.040692657
246	0xbe36f014	-0.1786502
247	0xbc6b898b	-0.0143760545
248	0xbd2b5eba	-0.041838385
249	0x3df61ad7	0.12016838
250	0x3e6ecbca	0.23319927
251	0x3e8d368e	0.27580684
252	0xbb8b1b1d	-0.0042451755
253	0xbd594075	-0.053039987
254	0xbd31b253	-0.043382954
255	0x3e881a15	0.265824

layer2.bias f4 [128]
0	0xbd6d2b05	-0.057902355
1	0x3c6159d1	0.013754324
2	0x3db77417	0.08957689
3	0x3c574f83	0.013141516
4	0x3da8a9ec	0.08235535
5	0xbd5100d7	-0.05102619
6	0x3dbef324	0.09323719
7	0x3b144cab	0.0022628705
8	0x3e2fdf3a	0.17174998
9	0x3e8a13ff	0.2696838
10	0xbd05d5bd	-0.03267454
11	0xbcd32ce8	-0.025778249
12	0x3d0f10fa	0.0349283
13	0x3e97b248	0.29628205
14	0x3d92c80d	0.07167063
15	0x3de822bf	0.11334752
16	0x3e12420f	0.14283012
17	0x3e6b61d2	0.22986534
18	0x3e886714	0.26641142
19	0x3e24d1ec	0.16095704
20	0x3eae234f	0.34011313
21	0x3d9aae25	0.07552747
22	0x3d3d7b00	0.04625988
23	0xbc12ec0a	-0.008967409
24	0x3d5cfb75	0.053950746
25	0xbd98ef69	-0.07467539
26	0xbda2a55a	-0.079416946
27	0x3c8b77a3	0.01702482
28	0x3e866312	0.2624746
29	0x3e9a1c6a	0.30099803
30	0xbc4791ee	-0.012180788
31	0xbd75a571	-0.05997223
32	0x3db73def	0.0894736
33	0x3e9ddfbb	0.30834755
34	0x3e23890b	0.15970246
35	0xbd0afc47	-0.033931997
36	0x3aa12d6d	0.0012296863
37	0x3c4e8a5a	0.012606228
38	0x3d74e838	0.059791774
39	0xbdc7aecd	-0.097501375
40	0x3dcf96cc	0.10136184
41	0x3ea93043	0.33044633
42	0xbdbc159d	-0.0918381
43	0xbd95fc47	-0.07323509
44	0xbd01c874	-0.031685308
45	0x3d88cb63	0.06679418
46	0x3e81b340	0.2533207
47	0x3c7bffdf	0.015380829
48	0x3d488d03	0.048962604
49	0x3e98a235	0.29811254
50	0x3ccaba60	0.024747074
51	0x3e7ea72a	0.24868456
52	0x3e6d038a	0.23145881
53	0x3e6c32e5	0.2306629
54	0x3cdfe21d	0.027329499
55	0x3e91d8a1	0.28485587
56	0xbd872fc8	-0.066009104
57	0x3e02a972	0.12759951
58	0x3e881b5b	0.2658337
59	0x3e837c65	0.25680843
60	0xbd87bde5	-0.066280164
61	0x3cf27800	0.029598236
62	0xbc777e4e	-0.015105797
63	0xbc354beb	-0.011065464
64	0x3e84d0e4	0.2594062
65	0x3de80ed5	0.11330954
66	0x3bd10d2a	0.006379743
67	0x3e8b3ca9	0.27194718
68	0x3d4470a8	0.047959
69	0xbca87027	-0.02056129
70	0x3dc5726d	0.096409656
71	0x3bdbb298	0.0067046396
72	0x3d288883	0.041145813
73	0x3e2abc3f	0.16673373
74	0x3d12d65b	0.035848957
75	0x3cd1eaf7	0.025624735
76	0x3c405862	0.011739822
77	0x3d49c07f	0.049255844
78	0x3e4e0921	0.2012067
79	0x3e07244a	0.13197437
80	0x3cb72a1d	0.022358948
81	0x3d690f4a	0.056899346
82	0xbdb93cef	-0.09044825
83	0xbdad6243	-0.084660076
84	0xbc3b6984	-0.011438731
85	0x3def2af4	0.116781145
86	0x3e30f0e3	0.17279391
87	0x3cd5eaff	0.026113031
88	0x3dee6eea	0.11642249
89	0x3cdfe62c	0.027331434
90	0x3d901bcf	0.07036554
91	0x3e5cbd50	0.21556592
92	0x3d182da3	0.037152898
93	0x3e54b9f4	0.2077406
94	0x3ded0cca	0.11574705
95	0x3c118f32	0.008884238
96	0xbc8863b9	-0.016649114
97	0xbd4a9e9d	-0.04946767
98	0xbbb18d37	-0.0054184454
99	0x3e9e0cd8	0.30869174
100	0x3e749bbd	0.23887534
101	0x3ead8957	0.33893844
102	0x3ad774bf	0.0016437991
103	0x3e52773e	0.205533
104	0xbd4f91d8	-0.050676197
105	0x3d5f9bae	0.054591827
106	0xbc193123	-0.009350094
107	0xbd4b76f6	-0.049673997
108	0x3e0beed5	0.13665326
109	0x3ddf8920	0.109148264
110	0x3e2b72f3	0.16743068
111	0x3e0b72a1	0.13617946
112	0x3d3f24d0	0.046665967
113	0x3e3582d7	0.17725693
114	0x3e7a6b33	0.24454956
115	0xbdc2913f	-0.0950036
116	0x3d14bba7	0.03631177
117	0x3e9a8d9c	0.30186164
118	0x3cfd7548	0.030939713
119	0xbd810bf2	-0.063011065
120	0x3e25eacb	0.16202848
121	0x3e1631a6	0.14667377
122	0x3eb9b2da	0.36269265
123	0xbd6d8c3f	-0.057995077
124	0x3d05698a	0.032571353
125	0x3e812645	0.2522451
126	0x3e39bcc2	0.18138412
127	0x3e9c512a	0.30530673

layer3.weight f4 [2, 128]
0	0xbd8729c5	-0.06599764
1	0xbe3fccea	-0.18730512
2	0x3ea8794e	0.32905048
3	0x3c357858	0.0110760555
4	0x3e9b7f2f	0.3037047
5	0xbeda3eb1	-0.42625955
6	0x3e9ba26d	0.3039736
7	0xbdef7fe8	-0.11694318
8	0x3e6d0a04	0.23148352
9	0x3ed1b5b7	0.4095895
10	0x3cbce81a	0.023059893
11	0xbea57dad	-0.32322446
12	0xbe36a7d3	-0.17837457
13	0x3ea1ec1b	0.31625447
14	0xbe3a9dcb	-0.18224256
15	0x3e8dcdd2	0.2769609
16	0x3e380bdd	0.17973275
17	0x3e31ed58	0.17375696
18	0x3e8eee1b	0.27916035
19	0x3eac9983	0.3371087
20	0x3eb80e07	0.35948202
21	0x3eb8b538	0.3607576
22	0x3eae5420	0.34048557
23	0xbe9b3808	-0.30316186
24	0x3ea33a2a	0.31880313
25	0x3db6f644	0.0893369
26	0xbebe4839	-0.37164477
27	0xbec59e9d	-0.38597575
28	0x3e629f58	0.22131097
29	0x3e74014b	0.23828618
30	0xbecb1eb6	-0.39671868
31	0xbe9a3662	-0.30119616
32	0x3e6759d8	0.22592866
33	0x3e7f5834	0.2493599
34	0x3e9ad907	0.30243704
35	0xbd891617	-0.066936664
36	0x3d0edc1a	0.034877874
37	0xbe754241	-0.23951055
38	0x3d94e1c1	0.07269622
39	0xbeaaf276	-0.33388108
40	0x3eb021ce	0.3440079
41	0x3ea08fee	0.3135981
42	0xbdfd7b0d	-0.12376986
43	0xbed45b45	-0.41475883
44	0xbe344879	-0.17605771
45	0xbd8da00a	-0.06915291
46	0x3ea1de38	0.31614852
47	0x3e8d0868	0.27545476
48	0xbf04c4bf	-0.5186271
49	0x3eaf8420	0.3428049
50	0xbef9a62a	-0.48759586
51	0x3e15bdba	0.14623156
52	0x3e646b3a	0.22306529
53	0x3e83771c	0.2567681
54	0xbdefe48e	-0.11713515
55	0x3eca51f7	0.3951566
56	0xbed4db99	-0.4157379
57	0x3eb0295b	0.34406552
58	0x3ebd612d	0.36988202
59	0x3ec0f1a0	0.37684345
60	0x3ccf2bf7	0.025289519
61	0x3e93a630	0.28837729
62	0xbee44910	-0.44586992
63	0x3c807bcb	0.01568403
64	0x3eb2a24c	0.34889448
65	0x3e982a12	0.29719597
66	0xbdf6478e	-0.12025367
67	0x3e2b1c57	0.1671003
68	0xbaeb0a75	-0.0017932194
69	0xbee35a80	-0.44404984
70	0x3e94fb53	0.29097995
71	0xbe2bee42	-0.16790107
72	0xbd688a70	-0.05677265
73	0x3eae7c74	0.34079325
74	0xbd3b3a85	-0.045710105
75	0x3ea10431	0.3144851
76	0xbef4cd7b	-0.4781302
77	0xbee63809	-0.44964626
78	0x3ea18c59	0.3155239
79	0x3df953f7	0.12174218
80	0xbdcb518f	-0.099276654
81	0xbd0325b2	-0.03201837
82	0xbeada90e	-0.3391804
83	0xbf09e91b	-0.53871316
84	0xbe855f65	-0.26049343
85	0xbc547b50	-0.012968853
86	0x3eba2e98	0.36363673
87	0xbeb03b96	-0.3442046
88	0x3e7fed23	0.24992804
89	0x3eab53a6	0.33462256
90	0x3e8679ac	0.26264703
91	0x3eac091a	0.33600694
92	0x3d9d1c7a	0.07671447
93	0x3e7141af	0.23560213
94	0x3ea671ec	0.3250879
95	0xbd7e1de1	-0.062040213
96	0xbd405445	-0.046955366
97	0x3ce27133	0.027641868
98	0xbebde9ed	-0.37092534
99	0x3e7c4a3f	0.24637698
100	0x3e8420df	0.2580633
101	0x3ebc46b5	0.36772695
102	0xbdc9a4b6	-0.09845869
103	0x3ea12ee2	0.3148108
104	0xbf109acc	-0.564862
105	0xbb621bce	-0.0034501436
106	0x3bd9c44b	0.0066457144
107	0xbd0b3176	-0.033982717
108	0x3eabb39b	0.33535466
109	0x3e93dbde	0.28878683
110	0x3e869205	0.2628328
111	0x3e7ff1e3	0.24994616
112	0x3e2a419a	0.16626588
113	0x3ecc1d3c	0.39866054
114	0x3e3a5036	0.1819466
115	0xbb854c29	-0.004067917
116	0xbe0e7922	-0.13913396
117	0x3e4efd6d	0.20213862
118	0x3e157687	0.14595996
119	0xbcadf4ad	-0.021234835
120	0x3e66ae2c	0.22527379
121	0x3ead5ff0	0.33862257
122	0x3ecd8a53	0.40144596
123	0xbd45659e	-0.048192613
124	0xbeac8ff8	-0.3370359
125	0x3e49bd66	0.19701156
126	0x3e6abe00	0.22924042
127	0x3e85d216	0.26136845
128	0xbd8d3797	-0.068953685
129	0xbd9dc590	-0.07703698
130	0x3ea92621	0.33036903
131	0x3d82bee4	0.06384066
132	0x3ea71f1c	0.32640922
133	0xbeb2811f	-0.34864137
134	0x3e8de18c	0.2771114
135	0x3e5fc46a	0.2185227
136	0x3ebab7cd	0.36468354
137	0x3e8d70ad	0.27625027
138	0xbc90e345	-0.017686496
139	0xbea96fcb	-0.33093104
140	0x3d39fe1c	0.045408353
141	0x3e420231	0.18946148
142	0xbe6080a2	-0.2192407
143	0x3e35767b	0.17720978
144	0x3e9e24d2	0.30887467
145	0x3e9a1b01	0.30098727
146	0x3ea28972	0.31745487
147	0x3ea5c851	0.32379392
148	0x3e83fd21	0.2577906
149	0x3eafe9a7	0.3435795
150	0x3ea6ff94	0.32616866
151	0xbe971d2d	-0.29514447
152	0x3eb7667c	0.35820377
153	0xbe6b12fd	-0.22956462
154	0xbe6b9673	-0.2300661
155	0xbef231b8	-0.47303557
156	0x3ea92a2f	0.33039996
157	0x3e744250	0.23853421
158	0xbdb737d8	-0.08946198
159	0xbebeada1	-0.37241843
160	0xbe2a974c	-0.16659278
161	0x3ea366dd	0.31914416
162	0x3e57eb99	0.21085967
163	0x3d9ba9dd	0.07600758
164	0xbd815df9	-0.06316752
165	0xbea3c20a	-0.31983978
166	0xbe6aee83	-0.22942548
167	0xbdc3a8b6	-0.095536634
168	0x3eb5014f	0.3535256
169	0x3eaaa48e	0.3332867
170	0xbe9dda03	-0.30830392
171	0xbe9f5ac5	-0.3112394
172	0xbeb799e3	-0.35859594
173	0xbcfd30f3	-0.03090713
174	0x3e4f850d	0.20265599
175	0x3ea01466	0.31265563
176	0xbf17ac89	-0.5924764
177	0x3e9d3231	0.30702356
178	0xbed9da6a	-0.4254945
179	0x3e8481d4	0.258803
180	0x3ea2aa7a	0.31770688
181	0x3ea28f4f	0.3174996
182	0xbe85f1d4	-0.26161063
183	0x3e81ed11	0.2537618
184	0xbe78c31b	-0.24293177
185	0x3eac90bb	0.3370417
186	0x3ea333bf	0.31875417
187	0x3e63b38f	0.22236465
188	0xbc930bf3	-0.017950034
189	0x3e6bb14c	0.23016852
190	0xbe20bfb2	-0.15698126
191	0xbd1fcdc7	-0.039014604
192	0x3ec6da0c	0.38838232
193	0x3e8f91b9	0.28040865
194	0xbe695c51	-0.22789122
195	0x3e88b00e	0.2669682
196	0xbd594042	-0.053039797
197	0xbe993f3e	-0.29931062
198	0x3ebbe965	0.36701503
199	0xbdd880e3	-0.10571458
200	0x3d0431ef	0.032274183
201	0x3ea5ef5e	0.32409185
202	0xbc71ee5d	-0.014766303
203	0x3e930ba5	0.28719822
204	0xbe1a39a9	-0.15061058
205	0xbed95b24	-0.42452347
206	0x3e927ca6	0.28610724
207	0x3ea7d53d	0.32779875
208	0xbe978497	-0.29593346
209	0xbd4b2433	-0.04959507
210	0xbe89e9d8	-0.2693622
211	0xbf03af23	-0.5143911
212	0xbebfd3ef	-0.3746638
213	0x3e81c429	0.2534497
214	0x3e791127	0.2432295
215	0xbe8ebdd5	-0.27879205
216	0x3e9b112a	0.30286533
217	0x3e9d3006	0.307007
218	0x3e9cef71	0.3065143
219	0x3eb0f7ad	0.34563962
220	0xbe70ca79	-0.23514737
221	0x3eaa3c92	0.33249336
222	0x3eac7e40	0.3369007
223	0xbd49850b	-0.049199145
224	0x3bacabb6	0.005269493
225	0x3d85cbc5	0.065330066
226	0xbea3803a	-0.31933767
227	0x3e866d7a	0.262554
228	0x3e8ba414	0.2727362
229	0x3e68205f	0.22668599
230	0x3e707f69	0.23486103
231	0x3e79ae94	0.24383003
232	0x3e79678b	0.24355905
233	0xbd96dc6f	-0.07366263
234	0xbc98b65a	-0.01864164
235	0x3cf34faf	0.029701082
236	0x3e8cf3b9	0.27529696
237	0x3eaf3f07	0.34227774
238	0x3de4c26b	0.11169895
239	0x3e70e4c2	0.23524764
240	0xbe32f655	-0.1747678
241	0x3ebbfb2e	0.36715072
242	0x3e8900f6	0.26758546
243	0xbeb0d9c0	-0.3454113
244	0xbdbb6575	-0.09150211
245	0x3eb69156	0.35657758
246	0x3e8c177f	0.27361676
247	0x3cc3c1e4	0.023896165
248	0x3e1a8be8	0.15092432
249	0x3e9dab7f	0.30794904
250	0x3e8b9571	0.27262452
251	0x3ba541c3	0.00504324
252	0xbe58fa1e	-0.21189162
253	0x3e788bbb	0.24272053
254	0x3eae740e	0.34072918
255	0x3e552c51	0.20817687

layer3.bias f4 [2]
0	0x3ddd1af2	0.10796155
1	0x3c94c48a	0.018160123
