models/traffic_world_110000.pth (torch, 392010 bytes, 6 tensors)

layers.0.weight f4 [256, 118]
000000 e5 48 4e 3d 7b 68 2b 3d 90 07 10 3d 43 97 92 3d
       0.050362486 0.041847687 0.035163462 0.07157757
000010 6d 0a af 3c d2 3c b0 3c 47 a6 d6 3b 94 8c 7f 3b
       0.021367276 0.021513376 0.0065505835 0.0038993703
000020 e1 6b b9 3c 17 81 98 bc 99 94 36 bd 3b 7a 2e bd
       0.022634448 -0.018616242 -0.044575308 -0.042597037
000030 b1 c0 5b bc 4c 81 1c bd 0f c1 19 3e df dc b8 3e
       -0.01341264 -0.038209245 0.15015052 0.3610601
000040 26 26 b1 bc 42 64 57 3c 46 57 15 3c 7f c8 01 3d
       -0.021624636 0.013146462 0.009115046 0.03168535
000050 e3 35 2e 3d 35 75 e5 3c ed f0 c7 3c b5 88 55 3c
       0.04253186 0.02800999 0.024406875 0.013033082
000060 f8 dc 41 3c 5e 2a a3 ba c7 d5 44 bc 5d f9 8a 3b
       0.011832468 -0.001244854 -0.012013859 0.004241152
000070 02 59 04 bb 37 b1 b8 3c 2c 34 f8 3c 94 1c b7 3c
       -0.0020194654 0.02254544 0.030298315 0.022352494
000080 24 cd b0 3c 63 60 c9 3b e0 99 9a 3c 15 e2 7c 3c
       0.021582194 0.0061455234 0.018872201 0.0154347615
000090 cb ac 77 bb 32 97 f2 3b 81 b8 55 3c 0c bf 05 3d
       -0.0037792202 0.007403278 0.013044477 0.0326529
0000a0 25 74 34 3d c5 2d 85 3c ef 6f 8d 3c dc f6 1d 3c
       0.044056077 0.016257176 0.017265288 0.009641375
0000b0 cf 10 06 3c ba 89 6a 3b 49 24 97 bc 77 c1 6f b9
       0.008182718 0.0035787658 -0.01844992 -0.00022864887
0000c0 34 0f 35 3b 21 9e 1f 3d db 79 01 3d c1 aa 04 3d
       0.002762747 0.038969163 0.03161035 0.032389406
0000d0 de 30 b3 3c 65 b6 88 3c d0 f4 01 3d a8 8f c8 3c
       0.021873888 0.016688535 0.031727612 0.024482563
0000e0 a9 a0 26 3d fb 82 37 3d 14 4f e8 3c d4 be 0f 3b
       0.04068056 0.044802647 0.02835802 0.002193381
0000f0 12 d3 fb bb 6e 26 de 3a 6b 13 9b 38 d6 2e 52 3c
       -0.0076850737 0.0016948709 7.394593e-05 0.012828549
000100 e8 06 3a 3d b8 50 bb 3d 2f 39 48 3d 4c ea 92 3d
       0.045416743 0.09146255 0.04888266 0.07173595
000110 d8 35 24 3d 44 cd ff 3c 4d 3d c8 3c 3b 5e 35 3c
       0.040090412 0.031225808 0.024443293 0.01106983
000120 04 47 e0 3c d3 4f 35 3c c4 92 29 3d b8 4a c0 3d
       0.027377613 0.011066395 0.041399732 0.093892515
000130 77 43 cc 3b 23 32 b6 3c 46 b9 ed 3c a6 69 fb 3c
       0.0062336284 0.022240704 0.02901901 0.030690026
000140 51 52 88 3c 5c e4 41 3c 6c c7 c6 3c 53 40 b5 38
       0.016640814 0.01183423 0.024265014 8.642734e-05
000150 b9 51 08 bb b1 f4 52 bd f2 fe 2a 3d 7b 30 31 3d
       -0.0020800664 -0.051502887 0.04174704 0.043259125
000160 eb 40 5a 3d f3 54 6c 3d b7 90 04 3d 69 0a 2d 3d
       0.053284567 0.0576982 0.032364573 0.042246256
000170 49 10 a1 3c c3 1f 57 3c 66 be 9a 3c a9 7d 78 bc
       0.019661086 0.013130131 0.018889617 -0.0151666785
000180 6a 4d 97 3d 21 3d 44 3d 62 ff 57 3d 5a ba 5e 3d
       0.073878124 0.04790986 0.052733786 0.054376937
000190 73 8c fb 3c 20 0f 30 3d c0 a8 46 3c 98 43 c0 3c
       0.03070662 0.042983174 0.012125194 0.023469731
0001a0 12 72 05 3d b9 c3 20 3c ff 31 78 3d e1 cd 37 3d
       0.03257949 0.009812289 0.060594555 0.044874076
0001b0 3b fe 66 3d da be 82 3d 8f 87 29 3d f1 65 59 3d
       0.056394797 0.06384058 0.041389044 0.053075735
0001c0 16 ef b6 3c 9a 53 c8 3c 36 45 02 3d f5 c2 cc 3a
       0.022330802 0.024453927 0.031804286 0.0015622067
0001d0 81 05 01 3b dc ac 47 3e 0b 08 c7 3d 00 e6 ad 3d
       0.0019687118 0.19499534 0.09718331 0.08491135
0001e0 34 87 ae 3d c3 61 cd 3d 86 3e b4 3c 94 47 b7 3c
       0.08521882 0.10028412 0.02200247 0.022372998
0001f0 dc 6c 8a 3c 72 50 2b 3c c9 d1 15 3d 39 35 05 bd
       0.016897611 0.010456191 0.03657702 -0.03252146
000200 b0 ea 57 bd 1b b5 51 bd 62 f0 de bb 46 b5 42 bd
       -0.05271405 -0.051198106 -0.006803558 -0.047536157
000210 ae 75 54 3e f9 cc 18 3f e6 32 03 bd 72 44 a8 3c
       0.20748016 0.59687763 -0.032030962 0.02054045
000220 22 d4 0e 3d 2b 70 87 3d 0b f7 b6 3d 74 49 88 3d
       0.034870274 0.06613191 0.089338385 0.06654635
000230 e2 15 58 3d 0e 90 e7 3c da 0a 26 3c 9b 88 07 3b
       0.052755244 0.028266933 0.010134423 0.0020680788
000240 35 c6 b9 bc 04 b2 57 3c 0b eb 95 3c ae 1b 65 3d
       -0.02267752 0.013165001 0.018300554 0.0559346
000250 b6 a5 9a 3d b6 b5 7b 3d 86 e2 53 3d 0d 62 b9 3c
       0.07551138 0.06145259 0.0517297 0.022629762
000260 f0 58 bf 3c 37 b3 b2 3c 7c 56 88 bc 30 c7 95 3c
       0.023357838 0.021813972 -0.016642801 0.018283457
000270 35 09 16 3d ef ae 93 3d 00 68 bf 3d 85 f7 4f 3d
       0.036629874 0.072111 0.09346008 0.050773162
000280 b9 0b 37 3d 8b f5 9d 3c ef 70 08 3c 53 12 a6 3b
       0.044688914 0.019282123 0.008327707 0.0050681024
000290 4a 63 15 bd 27 7e de 3b 48 4d c9 3c 02 05 9f 3d
       -0.036471643 0.006789941 0.024572983 0.07764627
0002a0 e3 5c 8c 3d da 9d 9a 3d d3 32 4f 3d 6b b3 d1 3c
       0.06853654 0.07549639 0.05058558 0.025598248
0002b0 d7 67 37 3d 00 8e 13 3d f2 61 4e 3d c6 03 6b 3d
       0.044776764 0.036024094 0.050386377 0.057376646
0002c0 39 29 8d 3d 60 e5 74 3c cb 57 a4 3a cb 5d 95 3c
       0.06892628 0.014947265 0.0012538371 0.0182332
0002d0 a2 e4 1d 3c 8f 99 b7 3c c5 fc 66 3d f8 5f be 3d
       0.00963703 0.02241209 0.056393404 0.09295648
0002e0 bd 75 a8 3d 7c 10 f0 3d 25 cc a8 3d 0a 36 76 3d
       0.08225582 0.11721894 0.082420625 0.06011013
0002f0 98 ea 51 3d c4 93 09 3d 28 5e 49 3d 8f 74 45 3d
       0.051249117 0.033588186 0.04916206 0.048206862
000300 33 8d f5 3d 52 7d 2c 3e c8 c6 9a 3c fa f6 18 3d
       0.11989822 0.16844681 0.018893614 0.03734491
000310 93 5d 45 3d a6 17 40 3d ac 35 07 3d 33 ff d6 3c
       0.048184942 0.046897553 0.03301017 0.026244735
000320 9b d6 1b 3d 54 e4 af 3c 48 89 c9 3c cd 72 b7 bc
       0.03804646 0.02147118 0.024601594 -0.022393608
000330 db 68 66 3d 9b 85 79 3d 32 52 96 3d 27 77 9a 3d
       0.05625234 0.06091843 0.07339896 0.07542258
000340 f8 9e 48 3d e5 4f 75 3d d3 e9 ff 3c 6a d5 28 3d
       0.04897973 0.059890646 0.031239426 0.041219153
000350 6f 0e 92 3d b9 8d 1a 3c aa d5 c1 3d 83 43 87 3d
       0.07131659 0.009433203 0.09464581 0.06604674
000360 4c 57 97 3d 8a c6 94 3d ee 6d 4e 3d f1 f5 7b 3d
       0.073896974 0.07264431 0.050397806 0.061513845
000370 57 7e b0 3c 5a ac 6d 3d 79 2e a5 3d 0a a4 63 3d
       0.021544619 0.058025695 0.080655046 0.05557636
000380 b3 e7 ae 3d 40 14 8e 3d d1 30 aa 3d c1 14 b9 3d
       0.08540287 0.06937456 0.08310092 0.090371616
000390 0d 7b 82 3d 4a 99 9b 3d b7 12 22 3d 55 1a 83 3d
       0.06371126 0.07597597 0.03956863 0.06401507
0003a0 f0 e0 b8 3d c3 05 18 3d df dc 00 3d 6e e0 47 3e
       0.090272784 0.03711487 0.03146064 0.19519207
0003b0 bd bd de bd ac ae c1 bd d7 dd 80 3e 28 9c a8 bd
       -0.108760335 -0.09457144 0.2516925 -0.082329094
0003c0 b9 55 da 39 f2 bb 39 39 74 dd a0 bc fd 65 d2 bc
       0.0004164407 0.0001771299 -0.019636847 -0.025683397
0003d0 56 17 f2 bb 7f 9a 3e 3d 0d 1d 4f bc 60 e8 7f 3c
       -0.0073880358 0.046534058 -0.012641204 0.015619367
0003e0 67 99 d1 bc 6d 15 14 3f 81 70 ca bc 10 5e 17 bf
       -0.025585843 0.57845193 -0.02471185 -0.59127903
0003f0 9a d3 f2 bc 5a 11 20 3e ac b1 2c 3d 56 2f 87 3c
       -0.029641915 0.15631619 0.04216163 0.016502064

layers.0.bias f4 [256]
000000 d2 76 a4 3c db bb 93 3d 26 e9 26 bd 13 fb 61 3d
       0.02007619 0.07213565 -0.04074969 0.055171084
000010 cc f9 be bc 4a 6c 54 3d 08 5e 99 3d b0 a1 c4 bd
       -0.023312472 0.051861085 0.07488638 -0.09601152
000020 db 66 38 3d 23 fb c9 bc dc b6 90 3d d6 0f 81 3c
       0.045019966 -0.024655884 0.07066128 0.015754621
000030 ef 69 f9 bd ec 51 84 bc 09 43 21 bd 16 3b fc bd
       -0.12178408 -0.016152345 -0.03937057 -0.12315957
000040 9b ed 72 3d 64 ca 79 3d 3e 81 cc 3d 2f 56 26 3d
       0.05930863 0.06098403 0.099855885 0.040609535
000050 c0 22 99 3d aa ff b0 3d a4 8c 4b 3d b7 82 b4 3c
       0.07477331 0.08642514 0.049694672 0.022034986
000060 bf 0f b6 3c 86 05 51 bd 1b ec be 3d 8e 65 0c 3f
       0.022224305 -0.05103066 0.09322377 0.5484246
000070 51 b6 9b 3d 06 03 a2 bc 45 4d e7 bb 52 fd ce 3d
       0.076031335 -0.019776832 -0.007058772 0.10106911
000080 15 60 66 ba 2a 9c 2c 3e 2d 59 24 3c a5 ea 11 be
       -0.0008788121 0.16856447 0.010031027 -0.14249666
000090 5b 1f f1 bc 57 8f 06 bd 42 fc c1 3d e4 38 b6 bd
       -0.029433897 -0.032851543 0.094719425 -0.0889757
0000a0 96 9a af 3d 36 c1 1e 3d 72 cd 2b 3e c7 d0 23 bd
       0.08574407 0.03875848 0.1677759 -0.039994027
0000b0 c5 70 a4 3d f7 a0 7e 3d f0 20 33 bd 36 c7 c6 bc
       0.080293216 0.062165227 -0.043732584 -0.024264913
0000c0 71 ba 0f be b2 24 81 3d e4 f0 f6 bc d1 b2 65 3c
       -0.14035966 0.06305827 -0.030144162 0.014019684
0000d0 07 db 88 bd 30 34 9b bd a5 33 b7 3d 5e f5 44 bd
       -0.06682401 -0.07578313 0.08945397 -0.048085563
0000e0 38 92 bb 3d bc d6 81 3d d5 bb c6 bd 5e 6d bb bc
       0.091587484 0.063397855 -0.09703795 -0.022879299
0000f0 09 6c 5f bd 89 e3 5e bd 7d 57 95 3d 37 8a 76 3d
       -0.05454639 -0.054416213 0.07292078 0.060190406
000100 15 dd 73 3d 80 bb 98 3d 11 1b 28 bd cb 56 19 3e
       0.059537012 0.07457638 -0.041041438 0.14974515
000110 26 f6 74 3d 6d b1 68 3d 5c 90 39 bd 02 4e a7 3d
       0.059805058 0.05680983 -0.045303687 0.08169176
000120 59 2d e8 bc a7 d2 2d 3e 7b 6d 2a 3c 6a 48 24 3e
       -0.028341936 0.16974889 0.010402079 0.16043249
000130 f2 d9 bb bc 99 d8 a9 3c b7 b0 0d 3d e3 a1 cd bc
       -0.022931073 0.020733165 0.034592357 -0.025101608
000140 b8 62 8a 3d 78 17 86 bd 8d 5a 92 3c 4a 6e 21 3d
       0.0675711 -0.06547445 0.017865444 0.03941182
000150 71 89 96 3d fb e4 43 3d ca ea 3e 3d 38 4b e1 3c
       0.073504336 0.047825795 0.04661063 0.027501687
000160 4f a9 e8 bd 10 b0 23 3d d6 b5 a1 be 2e 6d 65 bd
       -0.11360418 0.03996283 -0.31584042 -0.056012325
000170 43 9b 12 bc e0 9c fc 3d 9d 5e 68 3c 4e 51 03 bd
       -0.00894815 0.12334609 0.014182714 -0.03205996
000180 e1 2c 90 bd 48 b0 b3 bc 8f e1 a3 bd 08 3d 58 3c
       -0.0703981 -0.021934643 -0.08002006 0.013198145
000190 7b 9d 11 bb 3f f3 e5 3a 08 09 a6 3d 3f 19 d2 3d
       -0.002221911 0.0017543806 0.08107191 0.102587216
0001a0 30 c3 de be 0b 47 5c bd e0 71 0a 3d ba af be 3c
       -0.4350829 -0.05377869 0.033800006 0.023277152
0001b0 75 57 9d bd 59 bc 96 3d 11 cf e9 b9 a5 06 44 3e
       -0.07682697 0.07360143 -0.000445955 0.1914316
0001c0 61 93 3f 3d 7c a9 55 be 81 bc 51 bd 73 3d be 3b
       0.04677141 -0.20865434 -0.051205162 0.005805665
0001d0 6a e4 98 bd 5e dd 52 3c 29 18 d6 bc eb 35 12 3d
       -0.074654415 0.012870161 -0.026134567 0.03569595
0001e0 8c eb 66 3d bd e2 66 3d 1c f4 98 3d 26 e5 19 be
       0.05637698 0.05636858 0.07468435 -0.1502882
0001f0 5a 5d d4 3d db 5d a7 3d b3 d9 99 3d ce 67 ae bd
       0.10369368 0.081721984 0.07512226 -0.08515893
000200 65 9c 4a bd 23 1b 68 bc df 43 3d bd 80 b1 3f bf
       -0.049465556 -0.014166626 -0.046207305 -0.7488022
000210 e5 0d 51 bd 8e fa a1 3d 3c 18 03 3d 96 e9 40 bc
       -0.05103864 0.07909118 0.032005534 -0.011774441
000220 37 92 33 3e 9a 0b 3e 3d 02 06 7d 3d 52 fe 5f 3c
       0.17536245 0.046397783 0.061773308 0.0136714745
000230 c6 ae 44 be f1 d9 c4 3d 27 78 96 3d d3 df 46 3d
       -0.19207296 0.096118815 0.07347136 0.0485533
000240 59 34 7a 3d 7a ee 47 3d 33 66 22 bd 85 cd 69 bd
       0.06108508 0.048811413 -0.039648246 -0.057080764
000250 52 e3 8e 3e cf 99 45 bc 68 19 44 bd 81 3a ad 3d
       0.27907807 -0.012060597 -0.04787579 0.08458424
000260 b7 34 9a 3d 44 84 94 3c a1 d2 e5 bc 15 bd e4 3c
       0.07529586 0.018129475 -0.028054537 0.027922193
000270 08 30 20 3d db e9 a3 3d 9b 9a 83 3d 10 76 5b 3d
       0.039108306 0.08003589 0.06425973 0.05357939
000280 a8 95 65 bc e3 25 ac ba 42 26 1c 3e 50 be 6d 3d
       -0.014012732 -0.001313385 0.15248969 0.058042824
000290 28 55 2c 3e b0 b2 59 3c b5 c6 c7 3d 86 d9 de 3e
       0.1682936 0.013287231 0.09754697 0.43525332
0002a0 f5 8e 9b bd c0 64 80 3d 69 b8 1a 3c 14 b3 a3 3d
       -0.07595626 0.062692165 0.009443381 0.07993141
0002b0 15 e2 ad bd 2e ad 24 3c c2 3f 8a 3d fb 8c 30 bd
       -0.08490387 0.010051055 0.06750442 -0.0431032
0002c0 23 0d 96 3d 54 f5 a1 bd ae 70 29 bc eb 26 01 3e
       0.073267244 -0.07908121 -0.010341806 0.12612502
0002d0 ce c6 58 3d 75 93 cc 3d 8b 4d 00 3e d5 78 2b 3d
       0.05292397 0.09989063 0.1252958 0.04186328
0002e0 7f b1 40 3d fa 50 6a 3e b9 d9 07 be 8a 31 c8 bd
       0.047044273 0.22882453 -0.13266648 -0.09775074
0002f0 d2 ff 74 bc 8f ba 98 3e 4a e0 32 bd e3 c2 9f 3d
       -0.01495357 0.29829833 -0.04367093 0.078008436
000300 c4 f9 59 3c 2b 54 56 3d a2 35 fe 3c 9f 4c be 3c
       0.013304178 0.052326363 0.031031433 0.023229895
000310 20 a2 75 3d 46 bd 86 3d 1b bc 20 bd fa 36 8d be
       0.059969068 0.0657907 -0.03924189 -0.27581006
000320 c5 47 af 3d ce 7d 0f be 01 77 64 bd e9 11 7b 3d
       0.08558611 -0.14012834 -0.055777553 0.061296377
000330 f7 53 4f bd 86 2e 73 3d 7e 3d a2 3d 97 67 36 3c
       -0.050617184 0.05937054 0.07921885 0.011133096
000340 06 4d 21 3e 4a ca 48 bd de 00 f2 3a 3d df b9 3d
       0.15752038 -0.049021043 0.0018463393 0.090757824
000350 ac f2 27 3e 8f 3b 91 3c 3f 05 cb 3b 26 cf 31 bd
       0.16401166 0.017728595 0.0061956937 -0.043410443
000360 1a 6f 29 be 55 42 31 3d cb 6b 6c 3e 4b bb 1f 3d
       -0.16546288 0.04327615 0.23087995 0.038996976
000370 47 f8 6f 3d 36 3b 85 3d 71 52 a7 bd 41 3d fa 3c
       0.058586385 0.06505434 -0.08170021 0.030546786
000380 34 5c b6 3d 1f d0 4b bd 43 b8 3b 3d 63 05 81 bc
       0.08904305 -0.049759027 0.045830023 -0.015749639
000390 72 75 52 bd 31 90 25 3d 61 0d 63 3d f4 da 4b 3d
       -0.051381536 0.040420715 0.05543268 0.049769357
0003a0 7d 78 5e 3d e7 8c 85 bd 59 ad 5e 3d f9 8e 5a 3d
       0.054314125 -0.065210156 0.054364536 0.053359006
0003b0 17 f5 de bd c1 e9 0a be 94 48 f2 3b f0 69 b4 3e
       -0.10886591 -0.13565733 0.007393906 0.35237074
0003c0 86 f6 49 bd 55 ea ad 3d 2a 94 6e 3d 0b 12 48 3d
       -0.04930737 0.08491961 0.05824677 0.048845332
0003d0 30 22 4d bd e6 6c 7f 3d 8e 85 07 be ee 04 32 b9
       -0.050081432 0.062359713 -0.13234541 -0.0001697724
0003e0 ba 44 21 3d 03 39 80 3d 0b 9a 96 bc 9b a0 c1 3d
       0.039372183 0.06260874 -0.018384 0.09454461
0003f0 52 ca 16 bd e8 5a 83 3d 7c 31 9d 3c 6f f6 46 bd
       -0.03681404 0.06413823 0.019188635 -0.04857486

layers.2.weight f4 [256, 256]
000000 47 44 81 bd d6 6e 98 bc 02 89 8a 3c 2c 41 18 bd
       -0.06311851 -0.018607538 0.016911034 -0.037171528
000010 4c cc 58 bf df b6 00 bd 24 1a 5f 3c 48 c7 27 3d
       -0.8468673 -0.0314244 0.013617072 0.040961534
000020 17 8f c7 bc ed 5e 13 3d af 88 59 3c 52 b3 d7 3c
       -0.024360223 0.0359792 0.013277217 0.026330624
000030 1d 11 c7 3c e1 b3 85 3c e5 37 02 3d 9c 66 b9 3c
       0.024300152 0.016321125 0.031791586 0.022631936
000040 66 f6 f5 bc 2f eb d0 bc 51 3b 01 3d 55 4f ea bd
       -0.030024718 -0.02550277 0.03155071 -0.11440913
000050 15 40 6b 3c 9d 8a ca 3d a4 d2 c0 be 29 c6 19 bc
       0.01435854 0.0988972 -0.37660706 -0.009385624
000060 bc cc 5b 3e 32 1b ff 3b d5 08 90 be e0 f3 63 3e
       0.21464819 0.0077852244 -0.28131738 0.22261
000070 74 46 0b be 2a 49 a5 bc 07 1f 31 3c 0c 2f 84 3c
       -0.13601094 -0.020176489 0.01081062 0.016135715
000080 32 77 67 bd 99 37 47 3d 52 33 c0 be f4 23 8f 3c
       -0.056510158 0.048637006 -0.37539154 0.017473198
000090 97 da fa 3c 24 ef 0d 3d 08 77 5c 3c 36 bc 63 bd
       0.03062181 0.03465189 0.013456114 -0.055599414
0000a0 45 00 5f 3c ad 41 e7 bc d5 6a 09 3e 03 2c ad bb
       0.013610904 -0.028229559 0.1341966 -0.0052847876
0000b0 00 0a fb 3b cb 39 52 bc 96 db 94 3c 3f 07 15 3f
       0.007661104 -0.012831162 0.018171113 0.5821418
0000c0 69 ba 49 3c ac a0 ac bc 8e 7e bf 3d 05 a6 b4 3d
       0.01231251 -0.021072708 0.0935031 0.08820728
0000d0 40 d4 0c 3f 11 5d 0a bb 4a 12 b4 3c 03 fe 12 bf
       0.5501137 -0.00211126 0.021981377 -0.5741884
0000e0 c5 7e 82 3c 13 7b 61 bc 2a d0 78 3e 71 c6 9e b9
       0.015929589 -0.013762253 0.24298158 -0.0003028396
0000f0 44 02 24 bc d5 75 a6 3d 4a 0f 5a bb 89 c8 dc bc
       -0.010010306 0.081279434 -0.0033273273 -0.026951091
000100 55 8b e5 bc 13 67 8b be 18 89 3f 3f 68 0f b0 be
       -0.02802054 -0.27227077 0.74818563 -0.34386754
000110 8e 8d df bc d0 dc b6 bc c0 c4 e7 3b 0c a2 be be
       -0.027289178 -0.022322088 0.007073015 -0.37233007
000120 91 cb 5a 3e 15 81 20 3d bf 3e 9f bb a0 94 d8 3d
       0.21366717 0.039185602 -0.004859775 0.10575223
000130 65 87 1f 3d 83 2b ff 3c e6 16 8c 3d 3c d3 1e 3c
       0.03894748 0.031148678 0.06840305 0.009693917
000140 41 8c 15 3c 3a 17 ed b8 89 72 7f 3d d6 ff 2a 3d
       0.009127677 -0.00011305367 0.06236509 0.04174789
000150 9f 39 2f 3d 16 f6 f1 bc 02 51 3b bd 3b d0 bc 3e
       0.04277956 -0.029536288 -0.045731552 0.36877617
000160 5c 8e c3 3d d9 03 31 bd c9 41 ea 3c 58 75 21 3e
       0.09548637 -0.04321656 0.028595822 0.1576742
000170 06 39 3d bc 9d da af 3c 62 bb bc 3d 2c 39 90 3d
       -0.01154924 0.021466548 0.09215428 0.07042155
000180 fe 2c 0d 3c 2f 16 d2 3c e1 19 15 3d 93 aa 95 3d
       0.008616684 0.025645344 0.036401633 0.07307925
000190 3c 72 d6 3d 9e 5e 80 3c 1d fd 64 bc 21 63 8d 3c
       0.10471007 0.015670117 -0.0139763625 0.017259182
0001a0 6a 18 13 3d 92 b5 a3 3b 6e 29 82 bb 72 89 51 be
       0.035911955 0.00499601 -0.003972224 -0.20462587
0001b0 4d 0c 26 bc 96 56 73 bb 9f 62 9e 3e 64 04 6c 3e
       -0.010134769 -0.0037130467 0.30934617 0.2304855
0001c0 ce 51 1d bf 88 32 47 3e 68 b1 8a 3c 67 98 52 3e
       -0.6145295 0.1945287 0.016930297 0.2056595
0001d0 2e ad c8 37 a4 58 2d 3d 0f ec 84 3c f5 b8 8d 3c
       2.3922501e-05 0.042320862 0.016225843 0.017300108
0001e0 32 cf 0b bd d2 e0 3c bc 92 ce 01 bf e6 94 53 ba
       -0.034133144 -0.011528211 -0.50705826 -0.0008071199
0001f0 73 b3 69 be d2 54 a1 bc 2e b0 a3 3c b9 3e 24 3c
       -0.2282236 -0.019693766 0.01998147 0.01002472
000200 81 01 14 3f a8 cc 2a 3d 0b aa c4 be 74 13 d2 3d
       0.57814795 0.04169908 -0.38410982 0.10257617
000210 93 7b 9e 3c 08 79 79 bc 3e b3 e0 bc 32 08 d4 bc
       0.019346034 -0.01522661 -0.02742922 -0.025882814
000220 eb 9f 38 3d 8f 75 92 3e de 50 d8 bd 80 c9 69 be
       0.045074385 0.28605315 -0.10562299 -0.22830772
000230 51 c8 2f 3d e9 30 87 3c 8a e3 90 3c 3a d2 03 bc
       0.042915646 0.016502814 0.017686624 -0.008045727
000240 e9 de 6b bc 12 12 fd bb be a6 1a 3d 1a 0e a5 3c
       -0.014396408 -0.0077231014 0.037756674 0.020148326
000250 50 44 65 3e 42 5b 3f 3d 0e 20 0f 3f b6 a3 a3 3d
       0.2238934 0.04671789 0.55908287 0.0799021
000260 f7 5e 82 3c ce 29 d5 3c 67 85 5e be 99 4e 8b 3d
       0.015914423 0.02602091 -0.21730576 0.06802101
000270 6b a7 a1 bb 96 98 46 bc 80 81 0a bf 1d 89 2e bc
       -0.004933288 -0.01212134 -0.5410385 -0.010652808
000280 e6 9f 07 3d 08 95 b0 3c cc 37 54 3e 90 c2 33 3a
       0.033111475 0.021555439 0.2072441 0.00068573
000290 97 58 37 3d 20 81 88 be 5e 27 2c bf b7 62 e5 3d
       0.04476222 -0.26661015 -0.6724757 0.11200469
0002a0 5e 0b 5f 3d 7e 97 99 bc 55 60 fc be 0a 9c d2 3e
       0.0544542 -0.018748995 -0.49292246 0.41134673
0002b0 e4 5d b8 3e e8 ac 07 3d 8b f1 63 3c 1a 67 c0 3c
       0.36009133 0.03312388 0.013912569 0.023486663
0002c0 bb 5c 9a 3e 69 81 ea 3c 97 ac 14 bd 56 09 49 be
       0.30148873 0.02862616 -0.036297407 -0.19632468
0002d0 bb 8d 36 bc b0 59 58 be b4 cd d8 3c 16 89 84 bc
       -0.01114219 -0.21127963 0.026465274 -0.016178649
0002e0 c3 8a 48 3e 83 09 28 3e 16 e7 2a 3c b5 d0 06 3c
       0.19584183 0.16409878 0.010431072 0.008228471
0002f0 34 76 58 bd 8f 72 05 3d 29 c2 85 3c 7f 94 40 bc
       -0.052847102 0.032579955 0.016327934 -0.011754154
000300 c9 91 47 3d b0 6f d7 bc 74 30 87 be d5 43 b6 3c
       0.048723016 -0.026298374 -0.26404154 0.022249142
000310 56 97 e1 be b3 cb 11 3b c4 db 50 bb 94 6e c8 3c
       -0.44060773 0.0022246658 -0.0031869272 0.02446679
000320 71 5e 6f 3c 7f 0c c6 3c 40 e2 f6 3c 8e 2b d1 3b
       0.014609919 0.02417588 0.030137181 0.006383366
000330 38 94 92 3b b4 5b c7 be 7c 1d 7b 3c 00 fd 03 3d
       0.0044732355 -0.3893715 0.015326854 0.0322237
000340 74 25 15 3e 68 71 c7 bd 4d f7 ab 3c 65 7f 4f 3c
       0.14565068 -0.097384274 0.020991946 0.012664651
000350 ce f1 f2 3d 6c 1a a6 ba 55 7e 07 3d c5 74 59 3e
       0.11862527 -0.0012672669 0.033079464 0.2123595
000360 57 41 c9 3b 01 e9 5d 3b 5d 90 6d 3e 84 b5 87 be
       0.0061418223 0.0033860805 0.23199601 -0.26505673
000370 0b 3d 8a bc bc 0d 97 bb cf 79 76 3e ee f0 8e bb
       -0.01687481 -0.0046097916 0.24069904 -0.004362217
000380 2d 31 a2 3c 26 2b bc 3b f3 2d e8 bb 99 a2 c5 bc
       0.01979884 0.0057424484 -0.0070855557 -0.024125384
000390 84 a8 ce 3b ed f4 82 be 76 40 9e be ef ef 4e be
       0.0063067097 -0.2557749 -0.30908555 -0.20208715
0003a0 d0 21 c3 3b 9e 83 c4 3e 29 5f 01 bd af 19 d3 bc
       0.0059549585 0.38381666 -0.031584892 -0.025769083
0003b0 ee aa 6b ba 7e 79 81 3b 5f 8d d7 be d2 5e 13 3e
       -0.0008990009 0.0039512506 -0.42100045 0.1439164
0003c0 a5 2f c1 bc c0 66 0b 3d b3 76 be bc 2f 10 17 bc
       -0.023582289 0.034033537 -0.02324996 -0.009220167
0003d0 2a 09 1d 3c c0 89 c6 3c aa 45 ae 3c 8e f2 b3 3d
       0.009584704 0.024235606 0.021273453 0.08786498
0003e0 1a 7c 4d be 26 d4 a4 bc a9 62 9e 3e 23 07 bf be
       -0.20066872 -0.020120692 0.30934647 -0.37310132
0003f0 29 3e f6 3b 8c 6b 2c bb ab 2f 9d be c8 20 d6 3e
       0.0075147343 -0.002630922 -0.3070043 0.41821885

layers.2.bias f4 [256]
000000 1c 2e 32 3e 6b 3c 46 3e d4 21 15 3c 70 f9 a5 3b
       0.17400402 0.19358985 0.009102304 0.0050651357
000010 75 39 22 3e 0c f1 21 3e a1 ab 61 3c de 0e 57 b8
       0.1584223 0.15814608 0.01377383 -5.127384e-05
000020 ba 03 55 bc d7 4c 17 3e 36 f9 18 3e a6 24 3d 3c
       -0.013001377 0.14775406 0.14938816 0.011544382
000030 53 bb ad 38 73 40 a6 bb 52 61 16 3e f8 e2 4d 3b
       8.284175e-05 -0.005073601 0.14685562 0.0031415801
000040 80 7b e4 bc 9b 60 27 3e b5 6a 55 3e 7f 58 06 3e
       -0.02789092 0.16345446 0.20841487 0.13119696
000050 73 85 dc 3b 21 1e f5 3d db 20 36 3c 48 02 9c 3e
       0.0067297756 0.11968637 0.011116232 0.3047049
000060 e5 49 20 3e ef 24 2b 3e 13 10 37 3e 3a 42 22 3e
       0.15653189 0.16713308 0.17877226 0.15845576
000070 9d 89 33 3e c5 9f 1b 3e c1 db 43 38 e7 58 1d 3e
       0.17532964 0.15197666 4.6696285e-05 0.15365945
000080 8f 6c ce 3b 86 5f 3c 3c 5d d9 d0 3c 94 00 33 3e
       0.0062995623 0.011497384 0.025494272 0.1748069
000090 9b 8f 87 3d cc 13 93 3c 42 78 dd 3b 23 7e 05 3c
       0.066191874 0.017953776 0.0067587206 0.008147749
0000a0 5e e4 e0 3c ca 24 f9 3d f0 c3 86 3c 75 e1 eb bb
       0.027452644 0.1216522 0.016450852 -0.0071985074
0000b0 d0 b5 a6 3b 77 b7 33 3e 93 2d b5 3b 57 f6 29 3e
       0.0050875917 0.17550455 0.0055291145 0.16597877
0000c0 7c 73 1f 3e 76 b9 15 3c a8 f1 73 3b b3 9a 63 3e
       0.15571398 0.009138456 0.0037222896 0.22226982
0000d0 69 fc 2a 3c 01 a6 77 3e 8e 2b 12 3e 09 a0 15 3e
       0.010436156 0.24184419 0.14274427 0.1461183
0000e0 7f b5 12 3e dc bf 77 3c f5 a5 2d 3e e5 6c 07 3e
       0.14327048 0.015121426 0.16957839 0.13225134
0000f0 a3 f7 6e 3c 27 84 71 3e 75 cc 1e b8 48 47 f6 3b
       0.014585408 0.23585568 -3.786055e-05 0.0075158216
000100 5e 96 18 3e 6c 50 c3 b9 66 f1 10 3e e5 07 1f 3c
       0.1490111 -0.00037253217 0.14154586 0.009706472
000110 25 2e 67 3e 09 c5 58 bd a1 eb 34 3c e2 3d b9 3d
       0.22576196 -0.052922282 0.011042506 0.09045006
000120 de 88 03 3e 40 14 45 3e d0 2d 2e 3e c8 4c 36 3e
       0.1284518 0.19246006 0.17009664 0.17802727
000130 2f f2 6e 3e f9 36 f0 39 4f e8 2c 3a 27 23 1e 3c
       0.23334573 0.00045817325 0.0006595896 0.009651936
000140 65 6f 84 bc 84 ac fd b8 35 54 22 3e 95 81 ed 3d
       -0.016166398 -0.00012096114 0.15852435 0.115969814
000150 c5 50 08 3e 0b de a8 37 79 df 02 3e 26 98 ef bb
       0.13312061 2.0130557e-05 0.1278056 -0.0073118387
000160 65 fa 50 3e a7 7a 17 3e ee 73 5a 3e 8e ad 16 3e
       0.20408018 0.14792882 0.21333286 0.14714643
000170 67 25 23 3e 22 11 40 3d 84 59 69 3e 35 20 7f 3e
       0.15932237 0.04689134 0.22788054 0.2491463
000180 14 2d b7 3b 11 d2 b8 3d af 39 80 3e cc 72 2b 3e
       0.0055900905 0.09024442 0.2504401 0.1674301
000190 18 29 78 3e 07 fe f0 3d d7 75 17 3e 1a f7 46 bb
       0.24234426 0.11767202 0.14791046 -0.0030359686
0001a0 46 f0 16 3e 3c 00 54 3e 0d d5 89 b7 6d 8f 09 39
       0.14740095 0.20703214 -1.6430882e-05 0.00013118768
0001b0 d0 ef 7c 3e e5 db 9d ba 34 21 17 3e 84 4f 29 3d
       0.24700856 -0.0012043683 0.1475876 0.041335598
0001c0 a0 eb 1a 3e d6 8a 87 bc 67 49 1a 3e a7 8e 5a 3e
       0.15128946 -0.016545694 0.15067063 0.2134348
0001d0 ae fe 21 3e cc 46 07 3d f8 a0 fd 3d 43 03 ff 3d
       0.15819809 0.0330265 0.12384218 0.12451794
0001e0 b8 68 e3 3c 84 ab e5 3d 6c 7f 21 3e 92 86 21 3e
       0.027759895 0.11214355 0.15771264 0.15773991
0001f0 67 52 64 3e 6b ce 1d 3e ee 85 90 3e 37 df 79 3e
       0.22297059 0.15410773 0.2822718 0.24401556
000200 db a1 3e ba 50 f1 14 3e 09 6f 87 3b 9d 80 25 3e
       -0.0007272043 0.14545178 0.0041331095 0.16162343
000210 bb 56 33 3e e4 c9 15 39 5b af c7 3b 12 f9 12 3e
       0.17513554 0.00014284957 0.006093902 0.14352825
000220 e9 9e 01 3e f6 4b 76 3c eb e4 94 3e b8 f8 3a 3e
       0.12658276 0.015032759 0.290809 0.18258941
000230 64 63 12 3e 55 8b f7 3d 76 34 1f 3e 10 7c 29 3e
       0.14295727 0.12087122 0.15547356 0.16551232
000240 03 54 50 bb 6d 97 1c 3e 12 3b c4 bb 1b e4 3b 3e
       -0.0031788356 0.1529214 -0.005988487 0.18348734
000250 eb 17 be 3d 3c 0d 95 3e db ad 72 3e 04 d4 32 3c
       0.09281906 0.2911166 0.23699133 0.010914806
000260 39 55 59 3e e8 ec 10 b8 ad 89 17 3e 24 01 79 3e
       0.21223916 -3.455291e-05 0.14798613 0.24316841
000270 9e 16 44 3e d6 e5 08 3e 23 62 40 3e 70 f7 f1 3d
       0.19149253 0.13368925 0.18787436 0.11814773
000280 4b e1 8d 3d aa 02 6a 3e 8f b6 71 3e 02 61 e8 3d
       0.06927737 0.22852579 0.23604797 0.11346628
000290 ae be 13 3b 97 a0 12 3e f8 8b d9 3d 0e 02 18 3e
       0.0022544074 0.14319073 0.106224 0.14844534
0002a0 69 65 d7 3d b7 d9 44 3e 79 8e 61 3e a1 fd 82 3e
       0.10517389 0.19223677 0.22027005 0.25584128
0002b0 fd c1 bd 3b c5 cb f1 3c 71 4c 79 3e 5a ed 06 3e
       0.0057909475 0.02951611 0.24345566 0.1317648
0002c0 2c 1f 25 3e dc b1 55 3e a2 79 f4 bb ba ab 1c 3e
       0.16125172 0.20868629 -0.007460789 0.15299883
0002d0 b7 0e 32 3e ae 05 0e 3e 2d fa 34 3e 04 b1 0d 3e
       0.17388426 0.13869354 0.1767356 0.13837057
0002e0 88 d1 a0 bc e6 cf c7 3c 73 af 67 3e 17 14 68 3e
       -0.019631162 0.024391126 0.22625522 0.22663914
0002f0 fd 5b 5b 3e 82 e6 96 3c d1 d6 1a 3c 5e c0 16 3e
       0.2142181 0.018420462 0.00945063 0.1472182
000300 45 44 29 3e e3 fa 15 3d 23 9d a8 bc 35 80 05 3c
       0.16529949 0.036616217 -0.020582741 0.008148243
000310 9f 3c 14 3e f7 0c 04 3e 07 fb 28 3e 61 d2 ed 3b
       0.1447625 0.1289557 0.1650201 0.007257745
000320 e6 89 55 3e 86 13 02 3c f1 cf fd bc 35 84 1a 3e
       0.20853385 0.007939225 -0.030982943 0.15089495
000330 c8 52 07 3c 24 cf ad 3d cc 04 30 3c 6c dc 20 3e
       0.008259483 0.084867746 0.010743331 0.15709084
000340 28 60 3f 3e 22 6a 45 3c fe 04 22 3e 19 ea 13 3e
       0.18689024 0.01204923 0.15822217 0.1444477
000350 81 83 44 b9 88 28 6f 3e 6a c8 f1 b8 ef 0f b0 3b
       -0.00018741006 0.23355305 -0.000115291055 0.005372993
000360 c9 98 78 bb 32 58 f5 bb 20 12 28 3e c1 27 33 3c
       -0.0037932864 -0.0074873203 0.16413164 0.010934771
000370 be be 1d 3e 83 e5 17 3e 09 3e f7 3b 1d 91 5c 3e
       0.15404794 0.14833646 0.007545237 0.21539731
000380 8e a8 d4 3d 3d 0e 21 3e d1 42 e3 3d bd bc 34 3e
       0.10383712 0.15728088 0.110967286 0.17650123
000390 18 e9 01 bd 83 f1 11 3e 29 67 aa 37 2f 6e f6 3d
       -0.031716436 0.14252286 2.0313617e-05 0.120327346
0003a0 66 62 11 3e ac 17 25 3e e9 7b e6 3d 02 f6 4b 3e
       0.14197692 0.16122311 0.11254103 0.19918063
0003b0 02 3d ef 3d d7 b3 2e 3c 9f 86 86 3e b9 22 32 3c
       0.11681558 0.010662994 0.26274583 0.010872536
0003c0 97 a3 2a 3c e2 13 5d 3e 4d e5 2c 3e 0c cf 87 3e
       0.010414979 0.21589616 0.16884346 0.26525152
0003d0 ad b8 0c 39 bd d5 0e 3e ab f8 e8 bb 73 4f 0a 3c
       0.00013420238 0.13948722 -0.0071097217 0.008441794
0003e0 62 c5 04 3c 8b b4 a6 3d 54 41 1b 3e 4d c3 12 3e
       0.0081037 0.081399046 0.1516164 0.14332314
0003f0 b4 ee c3 bb 7f 2a 72 3e 91 68 21 3e e1 89 77 3e
       -0.0059793834 0.23649023 0.15762545 0.2417369

layers.4.weight f4 [4, 256]
000000 d9 b0 4e be b5 38 34 3f 5a ae 1d 3e 8d 7b 0c 3f
       -0.2018465 0.7039903 0.15398541 0.54876024
000010 d8 34 44 be 4f 60 50 be c6 2a 03 3f 82 13 07 b9
       -0.19160783 -0.20349239 0.5123714 -0.0001288187
000020 b9 a0 cd 3e 98 7d 3f be d0 c3 57 be dd 1e 02 3f
       0.40161684 -0.18700254 -0.2107079 0.50828344
000030 39 7f 13 39 74 be 31 3e 05 c9 39 be 0a 22 e9 3e
       0.00014066407 0.17357808 -0.18143089 0.45533782
000040 9c f1 2f 3f fe bc 4c be ad ce fc 3e 87 3f 36 be
       0.6872804 -0.1999397 0.4937643 -0.17797671
000050 06 ae 1e 3e 74 1d a8 3e a1 2f 0d 3e e0 b5 41 40
       0.15496072 0.3283497 0.137877 3.0267258
000060 d8 24 5a be b0 6a 51 be 72 aa 32 3f 1c d0 2d be
       -0.21303117 -0.20450854 0.6979133 -0.16973919
000070 f7 51 4c be 52 3d 5a be 95 31 f8 38 bd 5b 45 be
       -0.19953142 -0.21312454 0.00011834797 -0.19273277
000080 55 ac 13 3f 6a 4b ef 3e 29 3b 4e 3e 23 b9 86 3e
       0.5768483 0.46737224 0.20139755 0.26313123
000090 8b 38 f7 c0 73 d4 35 3f 13 0a 13 3e 5d 43 1c 3e
       -7.725652 0.71027297 0.14359312 0.15260072
0000a0 eb 1e f4 3e cf b8 2d be 9a e9 72 bd ec c6 c4 3e
       0.4767984 -0.1696503 -0.05930481 0.38433015
0000b0 ae 3d fd 3e dc 6d 3d 3f ed dd 17 3e b0 51 3b be
       0.4946112 0.7399576 0.14830752 -0.1829288
0000c0 ea b5 5f be cd 05 12 3e 63 20 e9 3d 44 08 42 3f
       -0.21846738 0.14260025 0.113831304 0.7579386
0000d0 c3 28 01 3e 16 c6 85 3f 11 ef e9 3e 04 b6 2c be
       0.12613206 1.0451076 0.45690206 -0.16866308
0000e0 ae 7d 53 be 94 c5 16 3f 77 d7 91 3f 1c 8d 5a 3f
       -0.20653412 0.5889523 1.139388 0.85371566
0000f0 e6 bd e3 3e c9 58 74 3f de 01 13 b9 82 29 10 3e
       0.4448082 0.95447975 -0.00014019708 0.14078334
000100 32 45 4e be 34 35 a0 b8 78 97 50 be 2a 42 06 3f
       -0.20143583 -7.6393044e-05 -0.2037028 0.5244471
000110 a3 45 61 3f 34 03 f6 c0 3f 29 0f 3e 8e d3 17 be
       0.8799688 -7.687891 0.13980578 -0.14826795
000120 c1 5e 22 be fa 68 78 be 67 79 87 3e c0 53 52 be
       -0.15856458 -0.24258795 0.2645981 -0.2053976
000130 92 c3 8c 3f 2b 9b f1 3e 03 38 0d 3e 6a 58 24 3e
       1.0997183 0.47188696 0.13790898 0.16049352
000140 1e 6d 17 3e cf ec ad 38 a4 8d 49 be 27 53 63 3e
       0.14787719 8.293392e-05 -0.19682938 0.22199689
000150 78 e2 63 be cf f9 07 ba 39 31 3d be 16 bb ea 3e
       -0.2225436 -0.00051870657 -0.18475808 0.4584586
000160 03 8d b3 3f 12 d5 5f be c3 43 68 be a9 9b 62 be
       1.4027408 -0.21858624 -0.22682099 -0.22129692
000170 2b a7 57 be 27 57 92 be a3 ed 49 3f 4e ec b3 3f
       -0.21059863 -0.28582117 0.7887823 1.405649
000180 7f c5 dd 3e 46 73 29 be 0e 39 97 3f 2d 8a 76 3e
       0.4331474 -0.1654788 1.1814287 0.24076147
000190 97 f8 5c 3f b0 5c 25 be 43 37 51 be ba 9e e4 3e
       0.8631682 -0.16148639 -0.20431237 0.4465235
0001a0 ae 80 43 be 55 be 65 be 64 09 48 b8 2e be 3f 38
       -0.19092056 -0.22435887 -4.769246e-05 4.5715067e-05
0001b0 73 40 25 40 6d 3d 6d 3e 22 76 63 be fc c8 b7 3e
       2.5820587 0.23167963 -0.22213033 0.35895526
0001c0 9a 01 40 be 7b ac bf 3e 91 05 a0 3e 6e db 73 be
       -0.18750611 0.3743628 0.31254247 -0.23814175
0001d0 be 3b e4 be 04 34 c4 bd 31 46 d9 3e 9d 36 1b be
       -0.4457683 -0.09580234 0.42436364 -0.15157552
0001e0 b3 a1 eb 3e 5f 49 0d be 5a 5d 43 be 65 b4 83 be
       0.46021804 -0.1379752 -0.1907858 -0.25723568
0001f0 97 e8 19 3f e3 b6 4c be 7f 77 cc 3f 4f a2 92 3f
       0.6012053 -0.19991641 1.5973967 1.1455783
000200 bd 6d 3a 3c 0b ba 44 be 4c d6 f1 3e 54 9a 52 be
       0.011378703 -0.19211595 0.47233808 -0.20566684
000210 f8 5e 61 be 4f 11 14 b8 14 79 f4 3d 25 90 1d be
       -0.22008884 -3.530207e-05 0.11937156 -0.15387018
000220 ef 37 34 be 5b a7 de 3e da ea ee 3f 8a 84 62 be
       -0.17599462 0.43487057 1.8665421 -0.22120872
000230 c1 34 4a be f7 1d 34 be 67 eb 55 be 95 4e 31 be
       -0.19746687 -0.17589556 -0.2089058 -0.17315133
000240 ef 7c f6 3e dc 44 44 be fa 47 e3 3e 16 ec 5f be
       0.48142192 -0.19166893 0.4439085 -0.21867403
000250 78 e3 2a be 0e 04 87 40 85 f6 32 40 c8 8b fa 3e
       -0.16688335 4.219245 2.7962964 0.4893477
000260 e1 fb 1f 3f f3 0a 0e b9 ce ef 2f be 28 58 b7 3f
       0.6249371 -0.00013546254 -0.17181322 1.4323778
000270 f2 c0 e3 3e 4a 67 57 be 85 9f c7 3e 6f c1 09 be
       0.44483143 -0.21035495 0.3898889 -0.13452695
000280 c0 12 a2 be 2f 59 2f 3f 9d 21 e0 3e 1d 29 99 3e
       -0.3165493 0.6849546 0.43775645 0.2991418
000290 72 96 d7 3d e1 48 46 be 93 fb 65 3f 0a 73 3c be
       0.10526742 -0.19363739 0.89836997 -0.18403259
0002a0 0f 5e 39 be ce b7 0f 3f 1e 03 6e 3f b9 15 95 3f
       -0.18102287 0.5613984 0.92973506 1.1647254
0002b0 34 7e 17 3e 45 be f7 3e 44 e7 d7 3f 78 95 2e be
       0.14794236 0.48387352 1.6867452 -0.17049205
0002c0 1e 07 3e be b7 1d da 3e 2a dd 8d 3e 47 84 77 be
       -0.18557402 0.42600796 0.27707797 -0.24171554
0002d0 d9 a8 56 be e6 cf 1f be cc 61 78 be c0 c5 2e be
       -0.20962848 -0.1560665 -0.24256057 -0.17067623
0002e0 59 0a b0 3e f4 a5 d2 3e 40 63 63 be 78 b4 54 be
       0.34382895 0.41142237 -0.2220583 -0.20771968
0002f0 e8 ca 43 be e3 39 75 3e ae 42 1d 3e 61 11 41 be
       -0.19120371 0.23947863 0.15357468 -0.18854286
000300 6f a8 3b be fc 34 b0 3e 85 69 8b be e2 4e 16 3e
       -0.18325971 0.34415424 -0.27228943 0.14678529
000310 60 31 54 be 41 42 25 be 55 b7 58 be 4e e9 16 3e
       -0.2072196 -0.16138555 -0.21163686 0.14737436
000320 f7 74 0d 3f 39 33 1e 3e 9b bc 27 3e 1b 58 35 be
       0.552566 0.15449227 0.16380541 -0.17709391
000330 52 e6 13 3e cd 7a 35 3e 11 6e 1c 3e a7 20 41 be
       0.14443329 0.17722626 0.15276362 -0.18860112
000340 4c c9 d9 3e a9 40 71 3e ad 50 62 be cd 56 42 be
       0.4253639 0.23559822 -0.22101088 -0.18978424
000350 27 e1 cd b8 2a f4 34 3f a8 2f 1e b9 87 74 1a 3e
       -9.8170996e-05 0.70685065 -0.00015085808 0.15083514
000360 f4 38 2f 3e bc 5c e7 3e 42 63 26 be 90 8d 1f 3e
       0.1711157 0.45187938 -0.16248801 0.15581346
000370 09 bd 54 be b0 a4 3e be de 27 23 3e a5 8a 31 3f
       -0.20775236 -0.18617511 0.15933177 0.6935218
000380 ab 5f 1f be 7c db 40 be bb ab 3a be 7f 63 5d be
       -0.15563838 -0.18833727 -0.18229572 -0.21619986
000390 cd ec 47 3e 06 b3 24 be 27 b9 a5 38 fd f6 34 be
       0.19523926 -0.16083917 7.9023004e-05 -0.17672344
0003a0 b0 3b 49 be 8e 2a 40 be 54 91 ea 3e df f3 01 3f
       -0.19651675 -0.18766233 0.45814002 0.5076274
0003b0 5e ad 37 be a7 05 0e 3e 9d 2b da 3f f6 be 14 3e
       -0.17937228 0.13869344 1.704456 0.14525971
0003c0 9f a7 0f 3e 09 37 e5 be bf 68 42 be 2c 8c 5d 3f
       0.14028786 -0.4476855 -0.1898527 0.8654201
0003d0 9c de 04 39 0a 48 22 be ef 92 e1 3e ab b0 11 3e
       0.0001267143 -0.15847793 0.44057414 0.1422755
0003e0 8f 8c 0a 3e ed 7e f4 bd 15 89 3e be 78 a1 1d be
       0.13530181 -0.11938272 -0.1860698 -0.15393627
0003f0 29 85 f6 bc 9f 9d 2b 3f 0f 37 30 be 8a e4 37 3f
       -0.030092793 0.67037386 -0.17208503 0.718331

layers.4.bias f4 [4]
000000 e2 1a 8e bd 29 b4 84 3d 8f ca 8b bd 93 e1 b1 bd
       -0.06938721 0.06479675 -0.06825744 -0.08685603
