models/traffic_world_110500.pth (torch, 391946 bytes, 6 tensors)

layers.0.weight f4 [256, 118]
00000000: f84c 6e3d 71c1 473d ff1d 893b e311 a23d
00000010: 4175 1d3d 6d02 1e3d 717d 4c3c 066a 0c3d
00000020: 447d d13c 0e34 54bc 0612 2cbd 2c40 b8bc
00000030: 7b87 abbb a73a 20bd 1dad 143e 95b5 b43e
00000040: 06ce d1bc 18bf 723c aa01 683c e624 003d
00000050: 19c2 443d 4d70 023d 2522 f63c 71a8 8a3c
00000060: a61e 533c c0c7 1d3a 1246 95bc 2d47 9f3b
00000070: 6d6f 933a 2f96 a23c 8136 0a3d 42b7 bd3c
00000080: 9732 cd3c 3999 9e3b 98c8 8c3c 069d 713c
00000090: 0883 04bc e3a8 c83b c332 7f3c b29e ec3c
000000a0: 37f9 3d3d a393 943c 9588 ac3c 5515 023c
000000b0: 49b0 0a3c 247c f83b 3852 c5bc 5466 82b9
000000c0: b8e3 543b 7bb3 173d f979 063d a84c 093d
000000d0: d46a bb3c fa87 493c 3eed e93c 3443 af3c
000000e0: 00c5 1b3d ab9b 293d d944 043d e10e 643b
000000f0: ee38 b6bb 7ba1 843b 2ae0 3d3b eebd 0a3c
00000100: ac58 353d 794a aa3d e01e 383d 0776 893d
00000110: a0f1 2a3d 1cfc f03c ebdc b23c e81a 323c
00000120: 2359 d53c edd8 3c3c a147 323d a5ff a93d
00000130: 6f27 8b3b 2292 9c3c 4805 f73c 8619 ea3c
00000140: 7d1c 6e3c 668e 483c 4547 bf3c cbd6 3eba
00000150: e12a 913a 907b 4abd a61c 263d 6ac6 243d
00000160: 7186 5b3d df1c 613d 7920 fb3c 32d8 2b3d
00000170: 94e8 843c 8fbd 463c d224 b43c a397 95bc
00000180: 86c2 923d 01a2 3b3d 04c5 5d3d b444 5a3d
00000190: 876e fb3c 5b2e 323d 45cf 2d3c 2e79 b63c
000001a0: 77fd 0a3d 0f23 733c 36c3 723d a355 3c3d
000001b0: 5e65 693d 0acd 7d3d 4111 283d 4d80 573d
000001c0: 78c1 9e3c c620 c23c 34ed 0a3d 28bd 11bb
000001d0: 8fa0 043b 4812 523e ef7c ca3d 5615 b23d
000001e0: 1efb 233d 6087 d83d 607e 393d e9f8 3a3d
000001f0: 9ae9 c63c f8de 3c3d 00ee 1d3d 38c9 dbbc
00000200: 5c64 4fbd 7591 ccbc 2713 413a 410d 48bd
00000210: a155 4e3e d183 143f 8369 0dbd 5c59 a73c
00000220: f5c9 233d 2dc8 833d f421 c23d 66ca 903d
00000230: 307a 703d 8940 0d3d a6b3 3c3c 2d4f 6c3b
00000240: 1699 e2bc da30 3f3c 461c a83c 4a0e 503d
00000250: 9f6d 9f3d 3c3c 7a3d 34b5 5e3d d127 ad3c
00000260: 549e ac3c 534e a43c 5ca0 9ebc 7d49 653c
00000270: 17cc 1c3d 5dd5 853d 9bf6 c03d f855 553d
00000280: b4f5 433d c8cc 8e3c c0aa 123c 1964 183c
00000290: de75 39bd 6991 8b3b 0cc5 b03c 9773 953d
000002a0: 9ed9 893d 87af 993d f0c0 483d 219d a03c
000002b0: c811 1f3d 4c71 ed3c 88a3 2b3d a562 4d3d
000002c0: 2911 8f3d 456c 5d3c 6e0e 8e3a 9482 943c
000002d0: d5fc 393c 5330 6c3c 1aa6 493d 6e75 9d3d
000002e0: 32bc 963d 6cc8 dd3d b09c a53d 86f1 603d
000002f0: e21c 373d 96d0 f73c 7cde 3a3d 97b9 433d
00000300: bf85 f43d 8e50 1a3e 9fb9 6c3c dbb0 023d
00000310: 97c8 3e3d 97e4 2d3d f7f0 e63c 276a c73c
00000320: b6b3 0f3d 8df8 9b3c 46b0 c93c d000 c9bc
00000330: bb1c 583d 6864 633d f6b3 913d 3a0d 903d
00000340: 89a8 373d fbd9 6a3d 8b4e d03c 5dce 1f3d
00000350: 6fba 953d e57a 6a3b 961c b93d 54f1 7c3d
00000360: ba28 963d 3849 8e3d f8ec 453d 5f33 763d
00000370: d2a1 933c 5efc 603d ca39 a23d f6ef 693d
00000380: 9985 a63d 7f06 8b3d 2d1c a63d 0c9a af3d
00000390: 617a 783d 6f7d 953d 330d 0a3d 83de 7b3d
000003a0: 8ca8 ba3d 6b60 f23c aeda eb3c 4f8f 4e3e
000003b0: a113 e0bd 4e77 cdbd f178 893e 2820 bbbd
000003c0: 0539 b2bc 821c b4bc ba72 09bd b001 94bd
000003d0: c440 a0bc 15a2 d93c 450a 473c d2a5 573c
000003e0: e54b ffbc 5946 103f 9f13 61bc 1c4e 0ebf
000003f0: 4c30 9abc f56f 223e db15 243d 5730 753c
0.058178872 0.048768464 0.004184484 0.07913568 0.0384419 0.038576532 0.012481079 0.0342808
0.025572427 -0.012951864 -0.042009376 -0.022491537 -0.0052346564 -0.039118435 0.14519162 0.35294786
-0.025610935 0.014816068 0.014160553 0.03128519 0.04803667 0.03184538 0.030045578 0.016926022
0.012885725 0.000601884 -0.018221889 0.0048607797 0.0011248417 0.019847004 0.033743385 0.023158673
0.025048537 0.004840043 0.017185494 0.01474691 -0.008087881 0.0061236485 0.015576067 0.028884266
0.046380248 0.018136805 0.021061221 0.007939656 0.008464881 0.007583158 -0.024087057 -0.00024871773
0.0032484364 0.0370364 0.032831166 0.03352037 0.022878088 0.012300486 0.028555509 0.02139435
0.03802967 0.041408222 0.03229222 0.0034798908 -0.0055609858 0.0040475703 0.0028972724 0.008468134
0.044274017 0.08314986 0.04495132 0.06711965 0.041734338 0.02941709 0.021833858 0.010870673
0.02604348 0.0115263285 0.043525342 0.083007134 0.004246644 0.01911265 0.030153885 0.028576624
0.014533159 0.012240982 0.023349414 -0.00072799315 0.0011075401 -0.049434245 0.040554665 0.040228285
0.05359501 0.054959174 0.030655133 0.041954227 0.016224183 0.012130155 0.021990214 -0.018260783
0.07166009 0.045808796 0.054142967 0.053288177 0.030692352 0.04350124 0.010608499 0.02227458
0.03393313 0.014839902 0.0592682 0.045980107 0.056981437 0.06196312 0.04103208 0.05261259
0.019379362 0.023697268 0.03391762 -0.002223799 0.0020237302 0.20514786 0.098871104 0.08695476
0.040034406 0.10572696 0.045286536 0.045647535 0.024281312 0.046111077 0.038557053 -0.026829347
-0.05063282 -0.024971703 0.00073652196 -0.048840765 0.20149852 0.58013636 -0.034524452 0.020428352
0.039987523 0.06434665 0.09479132 0.070698544 0.058710277 0.034485374 0.011517441 0.0036057935
-0.027660888 0.011669362 0.020521294 0.050794877 0.077845804 0.0610926 0.054372028 0.02113715
0.02107159 0.02005688 -0.019363575 0.013994572 0.038280573 0.065348364 0.09422036 0.05208394
0.047841743 0.017431632 0.008951843 0.009301209 -0.045278423 0.0042592776 0.021578334 0.07297438
0.0673096 0.07504182 0.049012125 0.019606175 0.038835317 0.028984688 0.041904002 0.050142903
0.06985695 0.013514583 0.0010838041 0.01812867 0.011351784 0.014415818 0.049230672 0.076884136
0.07360114 0.10829243 0.080865264 0.054917835 0.04470528 0.030250829 0.045622334 0.047784414
0.119395725 0.15069792 0.014448552 0.031906944 0.046578016 0.04245433 0.028191073 0.02434261
0.035083495 0.019039417 0.024620187 -0.02453652 0.052761775 0.055515677 0.07114403 0.07033773
0.044838462 0.05733679 0.025428077 0.039015163 0.0731095 0.0035778817 0.090386555 0.061753586
0.07331987 0.06947559 0.048321694 0.060107585 0.018021498 0.054928176 0.07921179 0.05711361
0.081309505 0.067883484 0.08110843 0.08574304 0.060663585 0.07299315 0.033703994 0.0614915
0.09114179 0.029586991 0.028790798 0.20171855 -0.10941244 -0.10032521 0.26850083 -0.09136993
-0.021755705 -0.02198625 -0.033556677 -0.07226884 -0.019562133 0.026566545 0.012148445 0.013162093
-0.031164119 0.5635734 -0.013737588 -0.55587935 -0.018821858 0.1586302 0.040059905 0.014965138

layers.0.bias f4 [256]
00000000: a521 c43c de69 983d 3658 45bd 8a9a 6e3d
00000010: 7e02 d0bc de0d 5e3d b192 9b3d 2222 e0bd
00000020: e552 443d 3c6d d3bc c46b 923d 2684 6e3c
00000030: d147 ffbd 4f8f abbc f2b8 1ebd 9d6b 0abe
00000040: baf3 7e3d 94b4 823d f551 cd3d 26cc 2e3d
00000050: a73f 9b3d 44d2 ab3d 2ae9 293d d60c e33c
00000060: 8d52 d13c 4d9e 49bd 32dd c63d bad3 0d3f
00000070: 8bfe 8f3d c8b8 90bc 0c51 e0bb 8840 d13d
00000080: dc63 5fba 36f6 2c3e 57d5 d23b 1b72 19be
00000090: 9663 04bd 8a80 19bd 50ea c43d c94b aebd
000000a0: 7dab b13d b49e 263d 2e1d 2b3e 6c2c 21bd
000000b0: cbbf a63d 23f5 823d 8ff5 38bd 70f1 ccbc
000000c0: 9f71 10be 66be 843d fc16 64bd ab31 263c
000000d0: 104d 7ebd f2eb aabd 64b0 b93d f644 42bd
000000e0: d9a3 bd3d c263 863d 232e d6bd 49a5 c6bc
000000f0: 02de 56bd 6d3f 5cbd 47c9 983d 652e 813d
00000100: fc3a 803d 8e23 913d aecf 0dbd 583e 0c3e
00000110: 75cb 803d c045 6f3d 8a45 3cbd c88d 933d
00000120: aec3 ebbc a919 2e3e a846 603c 9573 243e
00000130: 6c22 bbbc 54f8 813c b01c fa3c 80a9 16bd
00000140: 71c3 8c3d dec4 89bd 5cbf 473c 5389 193d
00000150: 11ae 9b3d bdd1 473d e26e 4a3d 283b de3c
00000160: 81db a7bd 22d0 253d ee3c a7be 69ac 72bd
00000170: e48b d7bb 8c77 fd3d a06d 603c cfd1 1dbd
00000180: 983f 8dbd dcad 0abd 50a9 9bbd c751 4a3c
00000190: 83ff 88bb 6373 a4ba db56 aa3d 9489 d43d
000001a0: f4e4 dabe 121e 6dbd b27e 0e3d 7c47 c13c
000001b0: 751c 99bd eb4a 9a3d 8d60 61bb 5649 433e
000001c0: bc40 333d 52f0 50be 188c 43bd b691 f13a
000001d0: 95fb a1bd 032a 0a3c 2fed d2bc df6c ed3c
000001e0: 2c54 733d 60d4 6d3d a6cf 993d 0a24 1abe
000001f0: b0b0 c83d 068d ad3d 7138 993d 8615 aabd
00000200: d8f0 30bd 0007 95bc fa66 34bd 2e66 41bf
00000210: e213 4bbd cb3b a63d eeae 0a3d 809c 2abc
00000220: c100 333e a8c8 463d fcfb 8f3d 0dcc 503c
00000230: cf8b 5abe f638 c73d 7160 983d 578a 4d3d
00000240: e48b 813d 3837 4e3d 1108 2cbd 50cf 91bd
00000250: d939 8f3e a4df 52bc 4710 3bbd a9c2 ab3d
00000260: 6c5b 9c3d eecb 8d3c 68d6 debc fa9b 8d3c
00000270: c0c4 243d db7e a73d b3b8 783d cfac 633d
00000280: 04fd adbc b75f 39bb a634 143e fdec 733d
00000290: 5460 2c3e ccb1 613c 6cf3 c03d f650 dc3e
000002a0: c938 8fbd 7d73 853d d758 0c3c a9c8 9b3d
000002b0: 5913 d4bd 6041 1c3c c501 8c3d 87c7 33bd
000002c0: 9d1e 8d3d 1601 a7bd 2f8a 1abc 5e00 f03d
000002d0: 3716 623d 3e82 cb3d b0d0 003e 0498 333d
000002e0: 1ce4 343d 88f8 673e 43b6 15be 963a c1bd
000002f0: e39f 52bc 37bb 973e 551f 2ebd 3315 a33d
00000300: 8555 473c f5df 593d 23e9 f23c f2b8 a33c
00000310: 3e61 6b3d 0dc1 863d 60ae 20bd 2987 98be
00000320: 3c40 b13d f604 1bbe 9640 8dbd 986d 803d
00000330: 41e5 4bbd f857 683d 9941 a43d 6e39 343c
00000340: 3f5d 223e 2164 f7bc 63eb 913a c4f6 bc3d
00000350: 6a5e 283e 3088 993c f584 aaba 9e7a 1fbd
00000360: 174b 24be 73e3 3a3d 26e3 6b3e 0fc0 123d
00000370: 4a6f 773d c806 893d cc7c 9abd 7ee0 0a3d
00000380: 6083 b73d a73b 4cbd e2c2 423d c1e0 5abc
00000390: a3f4 57bd d57d 143d 1f35 543d e268 3d3d
000003a0: 0d56 633d c753 60bd bdfa 6a3d cbba 613d
000003b0: 117c dcbd be5b 0ebe 3b05 983b 2586 b43e
000003c0: 6470 43bd b61c ae3d 378d 773d 507c 4f3d
000003d0: f85b 55bd 5778 7b3d 1cc0 0abe 057e 9fbb
000003e0: b049 183d 1196 843d a53c 7ebc bc98 a63d
000003f0: 48cc 11bd 0c8a 863d 28de 7f3c 23ef 3abd
0.023941824 0.074420676 -0.048179828 0.05825285 -0.025391813 0.054212444 0.075963385 -0.1094401
0.047930617 -0.025808923 0.07149461 0.014557874 -0.1246487 -0.020942358 -0.038750596 -0.13517614
0.062244155 0.06382099 0.10025398 0.04267516 0.075805 0.08389714 0.04148213 0.027716082
0.025552059 -0.049223233 0.097101584 0.55401194 0.07030972 -0.017666236 -0.006845599 0.102173865
-0.0008521655 0.16890797 0.0064341235 -0.14984934 -0.032321535 -0.0374761 0.09615004 -0.085105486
0.08675287 0.040678695 0.1671035 -0.039349005 0.0814205 0.06394412 -0.045156058 -0.02501747
-0.14105843 0.06481628 -0.055685982 0.010143678 -0.06208521 -0.08345784 0.09066847 -0.047429048
0.09259767 0.06561996 -0.10458019 -0.024248736 -0.052457817 -0.053771425 0.074602656 0.06307677
0.062612504 0.0708686 -0.034621887 0.13695657 0.06288806 0.05841613 -0.045964755 0.07204777
-0.02877983 0.17001976 0.013688721 0.16059716 -0.022843562 0.015865482 0.030531257 -0.03678274
0.06873215 -0.067270026 0.01219162 0.03748448 0.0760156 0.048784006 0.049422152 0.027127817
-0.08196164 0.040481694 -0.32663673 -0.059246454 -0.0065779556 0.123763174 0.013698012 -0.038530167
-0.06896895 -0.03385721 -0.07600653 0.012348599 -0.00418085 -0.0012546595 0.083173476 0.103778034
-0.42752802 -0.057890005 0.034788795 0.023593657 -0.07476131 0.07533821 -0.0034389824 0.19070944
0.043762907 -0.20404175 -0.047741026 0.0018430266 -0.079093136 0.008432868 -0.025747864 0.028982578
0.059406444 0.058063865 0.07510309 -0.1505281 0.097993255 0.08474164 0.074814685 -0.083048865
-0.043198436 -0.018191814 -0.04404352 -0.7554654 -0.04957951 0.08116873 0.033858232 -0.010413289
0.17480756 0.048531204 0.07030484 0.012743962 -0.21342395 0.09727661 0.0744027 0.05018076
0.0632551 0.05034563 -0.04199988 -0.0711962 0.27973822 -0.012870703 -0.04566982 0.08386738
0.07634625 0.017309155 -0.027201846 0.01728629 0.040226698 0.08178493 0.060723018 0.055584725
-0.021238811 -0.002828581 0.14473209 0.05955218 0.16833621 0.0137753 0.09421429 0.43030518
-0.06993253 0.06516168 0.008566103 0.07606632 -0.10355253 0.009537071 0.06836275 -0.043891456
0.06890605 -0.08154504 -0.00943236 0.1171882 0.055196967 0.09936951 0.12579608 0.043846145
0.044162855 0.22653401 -0.14620309 -0.094350025 -0.012855503 0.2963502 -0.04251035 0.07963028
0.012166386 0.053192098 0.029652184 0.01998565 0.057465784 0.0657979 -0.039228797 -0.2979062
0.0865483 -0.15138611 -0.068970844 0.06270903 -0.04977918 0.05672452 0.08020324 0.01100002
0.15855883 -0.030199112 0.0011132773 0.09226754 0.16442266 0.018741697 -0.0013009595 -0.038935296
-0.1604427 0.04562707 0.23035869 0.035827693 0.060408868 0.066907465 -0.07543334 0.0339055
0.08960605 -0.049861576 0.047549136 -0.01335925 -0.052723538 0.036252815 0.051808473 0.046242602
0.055501986 -0.054767396 0.05736803 0.05510978 -0.10765851 -0.13902184 0.0046392954 0.35258594
-0.047714606 0.0850157 0.060437407 0.050655663 -0.05208966 0.061394062 -0.13549846 -0.0048673176
0.03717965 0.064739354 -0.0155173885 0.081346005 -0.03559521 0.06569299 0.015616931 -0.045638215

layers.2.weight f4 [256, 256]
00000000: ab2a 81bd 28ea 9abc 769e 823c b00d 19bd
00000010: 62d1 55bf 4a5f 00bd 9320 473c b71e 253d
00000020: c21c c8bc fa3b 0c3d 186d 413c 1a59 d33c
00000030: 133b cc3c 868a 7b3c acc8 013d 1f0c c23c
00000040: f1af f6bc e52d d4bc 0a1b fa3c 3d8b e2bd
00000050: af9f 523c 83cd c33d 63c7 bdbe a527 61bc
00000060: 075f 5a3e e5ff 9f3b bf76 89be 258c 613e
00000070: e549 0cbe 4e05 aabc 82ab 2b3c da90 773c
00000080: f97a 60bd 3a37 473d 368f bdbe 52c1 943c
00000090: be84 f43c 6489 073d 4a82 4e3c 5094 80bd
000000a0: c598 4b3c 16d0 edbc 7c24 073e 7408 e3bb
000000b0: ac01 d13b a41a 5ebc 4352 9f3c 174b 193f
000000c0: 4015 ee3b 1b0a b0bc 2a5e ab3d b082 b73d
000000d0: 9097 083f b7a2 2abb c0d5 a63c 99c6 0ebf
000000e0: 8b99 713c 1c4d 6dbc ddc1 803e a489 1bba
000000f0: 7d34 9dbc 3388 a53d 32b6 8cbb 62d0 dfbc
00000100: 0376 e8bc 41b1 87be 10cf 393f 5e7c acbe
00000110: 94a0 e2bc addf b9bc b732 c83b ba06 b9be
00000120: 77f6 503e de64 213d c23f 0bbc e3f6 dd3d
00000130: a8da 2d3d f822 f93c e2fd 813d 9749 183c
00000140: 0547 033c c0d5 8e3a cb5a 803d fd80 283d
00000150: 064e 2d3d e5a9 f5bc 8912 32bd c351 ba3e
00000160: b706 a93d 4275 2ebd 9237 fe3c 995a 263e
00000170: 3822 54bc f583 ae3c bd10 ba3d 3b5d 8c3d
00000180: 7a7b 2c3c 275e c33c 9132 133d 8abf 913d
00000190: fa50 d33d 282c 823c 813d 6abc c94c 843c
000001a0: fa98 0f3d 78d7 853b bc37 88bb c255 4ebe
000001b0: 0959 3dbc 2f67 98bb 7bed 9b3e 7518 693e
000001c0: 04b1 18bf 2e90 463e 3dc2 8f3c 5276 493e
000001d0: 2da4 d43a ca9e 2e3d 0d7b 8f3c 898f 6c3c
000001e0: f1f4 0cbd 6f77 3fbc 330b fdbe ee04 3c3a
000001f0: defc 63be 2f17 a3bc 68e7 573c c4da 1a3c
00000200: 00e0 0e3f 6e20 193d 02f3 bebe 412e d13d
00000210: d61a a13c 49ed 7fbc 8227 0fbd 2887 d7bc
00000220: c1f7 353d d845 943e 12d6 d0bd cb7e 65be
00000230: 2687 373d 96d1 7a3c daa3 833c 7636 06bc
00000240: 515f 6cbc 4b2d 00bc 9a30 243d 04c5 a03c
00000250: 8ffe 643e 4780 3b3d 1a57 153f 4157 9d3d
00000260: 2e51 6b3c 4463 cf3c 42b9 57be 310b 823d
00000270: 609a a8bb eb42 4dbc ae55 07bf 9ac6 30bc
00000280: c4dd 023d 1cdc ac3c b015 523e 56bd 19b9
00000290: 7a5d 323d 55ed 85be 8461 28bf 413c e63d
000002a0: a544 663d 4eac 9abc 260d f6be 9c7f c93e
000002b0: 5832 bd3e 1ae7 043d 850c 4b3c 716e bf3c
000002c0: 638b 983e 9057 f23c f971 16bd 823b 43be
000002d0: 5534 38bc e292 51be 2680 cf3c c1ac 89bc
000002e0: 5c10 3e3e fa74 273e 0bd7 393c 3bc8 a03b
000002f0: 0af9 5cbd cb20 113d 0e66 833c 12d9 45bc
00000300: 19b3 433d 56ab dcbc 4a27 82be 3e88 b63c
00000310: 38df d9be 35bc 823a 5abd 8abb 5030 ec3c
00000320: e880 5a3c b352 bc3c 6928 e23c 1e87 ba3b
00000330: 2c54 4c3b da2f c3be 93b7 633c f240 fb3c
00000340: f0c0 143e ce33 cdbd d7e8 a13c 33e4 413c
00000350: 919b f03d 30c7 04bb 1533 fd3c d34c 543e
00000360: 4bc3 c23b f289 343c 0f84 6a3e 521f 86be
00000370: 13f6 8fbc fb31 b7bb 9a73 6e3e 5669 8dbb
00000380: eab0 963c 6ebf 9d3b 047f ecbb a450 c9bc
00000390: bf9a ba3b 72a1 7ebe 5347 9bbe 2ba0 4cbe
000003a0: 95bf b23b 0c0e c23e f56a 02bd 94aa d7bc
000003b0: 0e30 51bb 0f0e 543b 554a d2be d0df 153e
000003c0: 5449 d3bc 98a6 073d a2a6 c1bc 8ab0 19bc
000003d0: d987 f83b de9d bf3c 68e8 b33c 3798 ba3d
000003e0: 5b5c 48be 4e93 a8bc 1d9f a13e 4729 bbbe
000003f0: b2c2 c63b 6122 42bb 59bc 98be 05d5 cf3e
-0.063069664 -0.018910483 0.0159447 -0.03736657 -0.8352262 -0.031340875 0.012153762 0.040312495
-0.024427775 0.034236886 0.011805795 0.025799323 0.024930513 0.015352851 0.031685516 0.02368742
-0.030113192 -0.02590079 0.030530471 -0.11061714 0.012855454 0.095606826 -0.37066182 -0.013742362
0.21325313 0.0048828 -0.2684841 0.22026117 -0.13700064 -0.020754483 0.010477902 0.015110219
-0.054804776 0.048636653 -0.37023324 0.018158589 0.029848453 0.03309001 0.0126043055 -0.06278288
0.01242656 -0.029029887 0.13197511 -0.006928498 0.006378373 -0.013556156 0.019448405 0.59880203
0.007265717 -0.021489194 0.0836757 0.089604735 0.53356266 -0.0026036927 0.020365596 -0.55771786
0.01474608 -0.014483716 0.25147906 -0.0005933291 -0.019190067 0.080826186 -0.0042941803 -0.027321044
-0.028376585 -0.26502421 0.7258158 -0.33688635 -0.02766446 -0.022689665 0.0061095613 -0.36137944
0.20406519 0.039402835 -0.008499088 0.108381055 0.042444855 0.030412182 0.063472524 0.009294889
0.008012538 0.0010897443 0.062673174 0.041138638 0.042310737 -0.029988239 -0.043474708 0.36390504
0.08253234 -0.042592295 0.031032357 0.16245498 -0.0129476115 0.021303156 0.09085224 0.0685372
0.010527486 0.023848606 0.035936896 0.07116611 0.103181794 0.015890196 -0.01429689 0.016149895
0.035058 0.004084524 -0.0041570347 -0.20149902 -0.011556872 -0.0046509723 0.3045462 0.22763236
-0.59645104 0.19390938 0.017548675 0.19674042 0.0016223245 0.0426319 0.01751473 0.014438518
-0.03441328 -0.01168619 -0.49422607 0.00071723654 -0.2226443 -0.019908516 0.01317773 0.009451572
0.55810547 0.037384443 -0.37294775 0.102139 0.019666117 -0.015620538 -0.034949787 -0.026309565
0.04442573 0.28959537 -0.10197081 -0.22411649 0.044806622 0.015308758 0.016069341 -0.008191695
-0.014427022 -0.007823299 0.040085413 0.019625194 0.22362731 0.04577663 0.5833603 0.07682658
0.014362616 0.025315888 -0.21066764 0.06349791 -0.005145356 -0.0125281615 -0.5286511 -0.010789538
0.031949773 0.02110105 0.20516086 -0.0001466175 0.043546177 -0.26157632 -0.657738 0.11241961
0.05621781 -0.01888099 -0.48056906 0.3935517 0.36952472 0.032446958 0.012393122 0.023368092
0.29793844 0.029582769 -0.036729787 -0.19065669 -0.011242946 -0.20466188 0.02532966 -0.016806008
0.18560928 0.16353217 0.011342774 0.004906682 -0.05394844 0.035431664 0.016039874 -0.012075679
0.047778223 -0.026937168 -0.254206 0.022281762 -0.42553115 0.0009974303 -0.0042339982 0.028831631
0.013336398 0.022988653 0.02760716 0.0056923768 0.00311781 -0.38122445 0.013898748 0.030670617
0.14526725 -0.100196466 0.019764347 0.011834192 0.11748422 -0.0020260327 0.030908147 0.20732431
0.005943691 0.011019217 0.22901939 -0.2619577 -0.017573392 -0.005590675 0.23286286 -0.0043155355
0.018394906 0.00481408 -0.00721729 -0.024574585 0.0056947167 -0.24866274 -0.30327854 -0.19982974
0.0054549673 0.37901342 -0.031840283 -0.026326455 -0.0031919512 0.0032357012 -0.41072336 0.14636159
-0.025791802 0.03311786 -0.023639027 -0.009380469 0.0075845537 0.023390707 0.021961406 0.09111064
-0.19566481 -0.020578053 0.31566706 -0.3655493 0.00606569 -0.0029622542 -0.29831198 0.40592209

layers.2.bias f4 [256]
00000000: a560 2b3e 718d 4b3e 7659 573c 0be0 113c
00000010: a613 1b3e 56fb 193e 9740 963c dc89 50b8
00000020: 030b 26bc b722 103e 2e48 113e eb67 bf3c
00000030: 1d90 a838 6ddc 9a3a 53c4 0e3e 50d7 563c
00000040: ad39 c6bc 3268 1f3e b590 563e d0d8 fe3d
00000050: 0902 2f3c e47b f03d 05c7 6f3c 85e5 9c3e
00000060: 117d 183e ed25 233e c9ec 403e 425e 1a3e
00000070: 1ed9 2a3e ff55 123e f6cd 3d38 6147 153e
00000080: d776 683c d7a9 873c 82c6 133d debf 333e
00000090: 0a51 873d 84c9 b83c b0d9 283c af2a 463c
000000a0: 02f2 1a3d bffe ec3d 02e9 833c 6d2d 79bb
000000b0: c29b 2a3c 1bd9 333e 2f06 133c 4b90 223e
000000c0: f5de 173e e19c 503c cbe3 d33b bb03 673e
000000d0: 43c2 603c 648c 7b3e e876 1a3e 5e12 0e3e
000000e0: fce8 0b3e 8ed3 903c 47af 2a3e 666e 053e
000000f0: 2188 df3c ac26 6f3e 7514 1ab8 6ddf 323c
00000100: fe1d 123e a142 bdb9 9587 073e 2b3f 973c
00000110: 2a20 683e 525b 31bd 4c7f 6f3c 7f17 b03d
00000120: 3114 fa3d 02b6 3b3e f789 2e3e d710 2e3e
00000130: fb0e 6c3e 7d2c 663b 29e0 b93b 71a4 5a3c
00000140: 0da0 1dbc b8ea f5b8 e641 1a3e 41e1 ee3d
00000150: c31e 013e aebe a337 4bc4 f83d 9e4c 423b
00000160: bcc6 503e 4cb3 103e 2469 4f3e 7173 0f3e
00000170: ccd7 183e f6fb 443d bacf 703e aa6b 7d3e
00000180: d913 333c 97ce af3d 20f7 813e a60d 2c3e
00000190: 096d 773e f6a3 e43d 4ddd 103e 2e38 c33a
000001a0: 9174 103e feab 4b3e 1ea4 85b7 7e5e 0539
000001b0: 4346 7e3e 6497 c43b 9f4d 103e f012 583d
000001c0: 2292 133e 7286 3cbc 0144 1d3e e6de 4d3e
000001d0: 7593 1e3e 8bd5 043d 8626 fe3d 893b f33d
000001e0: 488b 1a3d bfa2 db3d 9cc1 193e dc74 193e
000001f0: 8cf6 683e 8023 163e 0c0e 953e 9fe2 763e
00000200: cf30 37ba 539a 0e3e b094 183c 029a 1d3e
00000210: 5218 2b3e be21 1139 27c1 123c b795 0c3e
00000220: c0f9 f23d 594a e13c fb2c 983e 219c 333e
00000230: ab69 083e c310 f13d 2d76 143e 606d 213e
00000240: f960 f539 2e19 153e 3cfa 3cbb 2aa1 333e
00000250: 4dcc ba3d 6a76 953e 954d 703e cd93 5c3c
00000260: 7e7a 5b3e 308c 0cb8 68e1 0f3e 9f32 7a3e
00000270: a155 453e 844b fe3d 2f9e 413e 545b e73d
00000280: 4b29 873d d740 6d3e f8b2 753e 5b07 e43d
00000290: e5cd 8c3b ea4d 0c3e ed48 d63d 9a66 103e
000002a0: 7714 cb3d 9498 483e 4399 623e d6ac 843e
000002b0: edde 153c 0263 213d def3 753e aef4 ff3d
000002c0: 3d48 1d3e 9892 4d3e 30b5 09bb e1a6 143e
000002d0: 1bd0 293e 19d0 063e 699a 2d3e c7f7 063e
000002e0: 7fdd 66bc f966 153d 0b99 573e 533c 5d3e
000002f0: d805 513e 32bd e93c 0fba 5d3c a1dd 0f3e
00000300: 5037 213e 686d 443d 224f 9ebc 8ab8 433c
00000310: 37d9 0a3e 8f6f fb3d 50d8 213e c1c7 313c
00000320: 303c 563e 4622 463c 6b44 dbbc 3c40 133e
00000330: fda5 433c 23c4 a83d fcd4 6c3c 7268 193e
00000340: 0aa2 3f3e 2949 b73c cfa6 1a3e 14b4 0c3e
00000350: b675 3eb9 6597 703e fa54 eab8 f4a6 163c
00000360: 641f 1d3b b403 9fba 83e2 1f3e 1875 723c
00000370: 7237 163e 5d24 103e 388f 3e3c 543a 643e
00000380: 3e11 ca3d 93f9 183e fa74 d83d ae2a 2c3e
00000390: 0279 c6bc 1454 0b3e cc47 a537 5f77 f43d
000003a0: 26b6 083e 6822 1d3e ebd7 f63d ecb3 4a3e
000003b0: 8efd e23d b474 673c da69 863e e27f 6f3c
000003c0: 94b9 653c d05c 573e 701f 253e 8175 8b3e
000003d0: be87 0839 4e59 083e c27e 63bb 7bb7 443c
000003e0: 64e5 383c 0383 9e3d b216 143e 69ff 0b3e
000003f0: 6fbf d9bb c046 753e 0581 193e 473c 7c3e
0.16736086 0.19878174 0.013143888 0.008903514 0.15144214 0.15037283 0.018341346 -4.9719456e-05
-0.010134461 0.14075743 0.1418769 0.023364982 8.0377074e-05 0.001181496 0.13942079 0.013112858
-0.024197424 0.15567091 0.20953639 0.124436975 0.010681638 0.1174238 0.014634852 0.3064386
0.14891459 0.15932436 0.18840326 0.15075019 0.16684386 0.14290617 4.5252928e-05 0.1457801
0.01418849 0.016560478 0.036077984 0.1755366 0.06607254 0.022557028 0.010305807 0.0120951375
0.037828453 0.115720265 0.016102318 -0.003802146 0.010413112 0.17563288 0.008973642 0.15875356
0.14831145 0.012732715 0.006466364 0.22560017 0.013718191 0.24565274 0.15084422 0.13874194
0.13663095 0.017679002 0.16668426 0.13030395 0.027286591 0.23354596 -3.6735513e-05 0.010917527
0.14269254 -0.00036098532 0.13235314 0.018462738 0.2266852 -0.04329998 0.014617752 0.085982315
0.122108825 0.18331149 0.17044817 0.16998611 0.2305259 0.0035121732 0.005672474 0.01334487
-0.009620679 -0.0001172623 0.15064201 0.116640575 0.12609391 1.9519906e-05 0.12146815 0.0029647718
0.20388311 0.14130896 0.20254952 0.14008881 0.1492607 0.04809185 0.23516741 0.24748102
0.010930025 0.08584326 0.25383854 0.16802081 0.24162687 0.111640856 0.1414692 0.0014894062
0.14106967 0.19889829 -1.5931259e-05 0.0001271907 0.2483149 0.0059994925 0.1409211 0.052752435
0.14411214 -0.011506664 0.15357973 0.2010456 0.15485938 0.032430213 0.124096915 0.1187659
0.037730485 0.10724401 0.15015262 0.14985985 0.227503 0.1466198 0.2911228 0.24109887
-0.0006988169 0.13926058 0.009312794 0.1539078 0.16708496 0.00013840848 0.008957184 0.13728987
0.11864042 0.027501272 0.29721817 0.17540027 0.13321559 0.11770775 0.14498205 0.1576438
0.00046802292 0.14560387 -0.0028835675 0.17541948 0.091209985 0.29191905 0.23467095 0.013462973
0.21433446 -3.350916e-05 0.1405083 0.24433373 0.19270946 0.12416747 0.18907999 0.11296716
0.06599673 0.23169266 0.23994052 0.111342154 0.0042970055 0.13701597 0.10463128 0.1410164
0.09916013 0.19589454 0.22128777 0.25913113 0.009147388 0.03940106 0.24018809 0.12497841
0.15359588 0.20075452 -0.0021012537 0.14516784 0.16583292 0.1316532 0.16953434 0.13180457
-0.014090895 0.036475156 0.21054475 0.21605043 0.20412385 0.028532598 0.013533129 0.14049388
0.15743756 0.0479559 -0.019324843 0.011945853 0.13559423 0.122771375 0.15805173 0.010850848
0.20921397 0.012093132 -0.026766023 0.14379972 0.01194143 0.08240535 0.014455076 0.14981249
0.18714157 0.022373753 0.15102695 0.1374057 -0.00018163663 0.23495252 -0.000111738176 0.009195078
0.002397501 -0.0012131841 0.15613751 0.014798425 0.14669588 0.14076371 0.011630826 0.22287875
0.0986657 0.14938955 0.105691865 0.16813156 -0.024227623 0.13606292 1.9702966e-05 0.11936831
0.13350734 0.15345156 0.12052902 0.19795197 0.11083518 0.014126945 0.26252633 0.014617892
0.014021296 0.21031499 0.16125274 0.27238086 0.00013020539 0.13315317 -0.0034713005 0.012006636
0.01128516 0.07739832 0.14461783 0.1367165 -0.006645135 0.2395277 0.14990623 0.24632369

layers.4.weight f4 [4, 256]
00000000: 4e89 4bbe e55e 303f 33ff 1d3e d31f 0c3f
00000010: 304a 41be d83a 4dbe 8c00 033f 93e2 02b9
00000020: e0fa ce3e ce83 3cbe 9077 54be 00d7 013f
00000030: acdc 0e39 ac8f 313e 42cd 36be ab73 e93e
00000040: 4150 2f3f fd9a 49be 9b59 ea3e 9199 33be
00000050: 4c66 1e3e 4c19 a73e 045d 0d3e 6ab9 3e40
00000060: 1105 57be ac3c 4ebe 78c6 2f3f aa7f 2bbe
00000070: 820a 49be f40a 57be 25be f038 0d75 42be
00000080: c018 133f a10e ef3e 75e3 4e3e bfbb 7e3e
00000090: 3980 f2c0 db53 363f 71f1 123e 8a91 1c3e
000000a0: 5aa8 f33e b764 2bbe 2928 6fbd 27b7 c53e
000000b0: cbd9 fc3e ff2e 3b3f b143 183e 21dd 38be
000000c0: 7ae8 5bbe e8cd 113e 7450 eb3d 3f20 413f
000000d0: f194 013e 87fd 823f 0c0e e93e 0c3a 2abe
000000e0: 1811 50be 76c8 153f ed8f 903f 4aeb 603f
000000f0: a130 e43e 9fa6 6a3f da6b 0eb9 a6d6 0f3e
00000100: 93f7 4abe 695c 9bb8 3417 4dbe bcc0 053f
00000110: 649b 603f 3588 f4c0 b704 0f3e dded 15be
00000120: d188 1fbe 3a5e 74be 2068 833e 3de4 4ebe
00000130: 83a0 873f 9ecc f13e 0e34 0e3e 13ea 233e
00000140: 08b0 1a3e 79bd a838 bcd4 46be e498 653e
00000150: 79e2 5fbe e0c8 03ba f4ff 39be a535 ea3e
00000160: 59d0 b23f 0527 5cbe 9876 64be 62dc 5ebe
00000170: 795c 54be 2d18 8ebe dd14 473f f7bf ad3f
00000180: 32e9 dd3e c210 27be d75e 943f cccb 743e
00000190: 5421 593f 288e 22be 8fb9 4dbe 7d6b e53e
000001a0: c04f 40be 1ee2 61be 99fb 41b8 87e2 3938
000001b0: 20bf 2340 5cdf 6e3e 11db 5fbe 223d b83e
000001c0: b1f9 3cbe 120f bf3e 485d 9f3e 0b09 70be
000001d0: 7555 e1be 9c28 c1bd 74ae d83e 0bc2 18be
000001e0: 2b88 ea3e d30b 0bbe b741 40be 414b 81be
000001f0: 61a0 163f 7c7a 49be 8f2c c83f cde5 8e3f
00000200: 35a3 3c3c 42ba 41be 176b f23e b262 4fbe
00000210: 3dd9 5dbe 2969 0fb8 e149 f63d b7e2 1abe
00000220: 653a 31be ecfa de3e e4f2 e93f 25db 5ebe
00000230: 3a3a 47be a5cd 30be 9699 52be 37f4 2ebe
00000240: 8af3 f63e 8073 41be 2b2a e43e 2655 5cbe
00000250: 8287 28be 8647 8540 09cc 3040 f1c0 f93e
00000260: ecde 163f 04da 09b9 5050 2dbe 488f b03f
00000270: a202 e23e c60c 54be fbc2 c73e 896a 07be
00000280: 481d a0be 0193 2c3f 320d df3e 9628 983e
00000290: 499d d83d fc68 43be 4444 6b3f cabc 39be
000002a0: bd59 36be ddcc 0e3f 4b1a 663f 9d12 933f
000002b0: 8fd8 173e 78c0 f63e cbe7 d33f 01ec 2bbe
000002c0: 4926 3bbe cb69 d93e f76f 8e3e 553d 73be
000002d0: b7af 53be f0f6 1dbe cba2 74be b52e 2cbe
000002e0: aa74 b03e cd63 d33e 1e92 5fbe 027a 51be
000002f0: c630 41be 733e 743e 32bb 1d3e e713 3ebe
00000300: e940 39be a98e b03e bb1e 86be c571 163e
00000310: 1af9 50be 042e 22be 63c3 55be b1c5 163e
00000320: f88b 0c3f 5046 1e3e 1c46 2a3e 8eaf 32be
00000330: a4cb 133e 7084 3b3e 4b61 1c3e 152b 3ebe
00000340: 0211 d83e aa59 703e 8b9f 5ebe 0d5f 3fbe
00000350: 15a4 c7b8 efb3 323f e985 19b9 ad98 1a3e
00000360: 810e 2f3e 3056 e73e 0230 24be fd65 1f3e
00000370: 1b5d 51be 5683 3bbe 148a 233e 5df7 2e3f
00000380: 9cce 1cbe 5efe 3dbe 7ab8 37be eacb 59be
00000390: 736d 483e 673c 22be ca99 a038 3173 31be
000003a0: fed7 45be cc4d 3dbe af78 e93e 30a8 013f
000003b0: 05cf 34be 1436 0e3e cdce d83f 8a37 153e
000003c0: b665 0f3e 1e0d e1be 1c8c 3fbe faa0 583f
000003d0: adad 0039 0c4a 1fbe 858b e23e 7480 113e
000003e0: 24f7 0a3e 9930 f0bd 70b1 3bbe 4ca6 1bbe
000003f0: 2335 eebc 90d8 243f 7f81 2dbe b704 363f
-0.19876596 0.688948 0.15429382 0.5473606 -0.18875957 -0.20041978 0.5117271 -0.00012482172
0.40425777 -0.18409654 -0.20748734 0.5071869 0.00013624382 0.17339963 -0.17851737 0.4559606
0.6848183 -0.1968803 0.4577149 -0.1753905 0.1546871 0.32636487 0.13805014 2.9800668
-0.20998026 -0.20140332 0.68662214 -0.16747919 -0.19632915 -0.21000272 0.00011479509 -0.18989964
0.5745964 0.46690848 0.20203955 0.24876307 -7.578152 0.71221703 0.14349915 0.15289894
0.4758938 -0.16737638 -0.05838791 0.38616297 0.49384913 0.73118585 0.14869572 -0.18053104
-0.21475402 0.14238703 0.114899546 0.7543983 0.12654473 1.023362 0.4551853 -0.16623706
-0.20319021 0.58509004 1.1293923 0.8785902 0.4456835 0.91660494 -0.00013582353 0.14046726
-0.19821005 -7.408189e-05 -0.20028383 0.52247214 0.8773711 -7.641627 0.13966642 -0.14641519
-0.15579535 -0.2386407 0.2566538 -0.20204253 1.0595859 0.47226423 0.13887045 0.16007261
0.15106213 8.046156e-05 -0.19417089 0.22421604 -0.21863736 -0.0005027186 -0.18164045 0.45744053
1.3969833 -0.2149926 -0.22310865 -0.21763757 -0.207384 -0.2775282 0.7776621 1.3574208
0.43341976 -0.16314986 1.1591443 0.23905867 0.8481648 -0.15874541 -0.20090316 0.4480857
-0.18780422 -0.22058913 -4.6249104e-05 4.4318407e-05 2.5585403 0.23327392 -0.21860911 0.3598414
-0.18454625 0.37316185 0.31125855 -0.2344095 -0.4401051 -0.09431574 0.42320597 -0.14917772
0.45807013 -0.1357873 -0.18775068 -0.25252727 0.5883847 -0.1967563 1.5638598 1.116388
0.011513521 -0.18918708 0.47347328 -0.20252493 -0.21664901 -3.4191795e-05 0.1202581 -0.15125547
-0.17307432 0.43550813 1.8277249 -0.21763285 -0.19455805 -0.17265947 -0.20566401 -0.17085348
0.4823268 -0.18891716 0.44563422 -0.21516857 -0.16457942 4.164981 2.7624533 0.48780015
0.589339 -0.00013146555 -0.16925168 1.3793726 0.44142634 -0.20707998 0.39015946 -0.13224234
-0.3127234 0.6741181 0.43564755 0.29718465 0.10576875 -0.19083017 0.9190104 -0.18138424
-0.1780767 0.55781347 0.8988387 1.1490055 0.14828704 0.48193717 1.6555113 -0.16789247
-0.18276323 0.42463526 0.27819797 -0.23753865 -0.20672499 -0.1542623 -0.23890226 -0.16814692
0.34464008 0.4128708 -0.21833083 -0.20456699 -0.18866262 0.23851947 0.1540344 -0.1856228
-0.18091168 0.3448384 -0.2619532 0.14691837 -0.20407525 -0.15837866 -0.20875315 0.14723851
0.54901075 0.1545651 0.16628307 -0.17449781 0.14433151 0.1831224 0.1527149 -0.18571122
0.42200476 0.23471704 -0.21740548 -0.18688603 -9.519622e-05 0.69805807 -0.00014641102 0.15097304
0.17095377 0.45182943 -0.16033939 0.15566249 -0.20445673 -0.1831182 0.15970641 0.68346196
-0.1531319 -0.18554065 -0.17941466 -0.21269193 0.19573002 -0.15843354 7.65804e-05 -0.17329098
-0.19320676 -0.18486708 0.45599887 0.5064726 -0.17657097 0.13887817 1.693811 0.14571968
0.14003643 -0.4395532 -0.18705791 0.8462063 0.0001227173 -0.1555559 0.4424707 0.14209157
0.13570839 -0.11728019 -0.18329406 -0.15200156 -0.029078072 0.6439295 -0.1694393 0.71100944

layers.4.bias f4 [4]
00000000: 3213 93bd 3c76 833d 5c24 7dbd 1a36 9fbd
-0.071813956 0.06419036 -0.061802253 -0.07773991
