models/traffic_world_111000.pth (torch, 392010 bytes, 6 tensors)

layers.0.weight f4 [256, 118]
000000 9a 6e 85 3d c6 bd 63 3d 69 fb 5c b9 db af b5 3d
       0.06515236 0.055600904 -0.00021074493 0.088714324
000010 e6 66 11 3d 26 f2 11 3d 7c e6 6f 3c 7d f1 06 3d
       0.035498522 0.03563132 0.014642354 0.032945145
000020 08 05 85 3c da 14 85 bb ff 6a 81 bd 21 11 f2 3b
       0.01623775 -0.0040613236 -0.06319236 0.007387296
000030 c3 fd b7 bc 74 7e 31 bd 56 f1 18 3e ee 43 b3 3e
       -0.02245987 -0.043333486 0.14935812 0.35012764
000040 ee 6e bc bc 26 1a 65 3c f0 5e 8f 3c ec aa 0a 3d
       -0.023002114 0.013983285 0.017501324 0.03385441
000050 50 05 48 3d 33 47 0c 3d af 5c f7 3c 51 27 98 3c
       0.04883319 0.03424759 0.030195562 0.018573435
000060 92 52 2b 3c 06 3c ba ba 4a 4a 6c bc 6a f8 e6 3b
       0.010456698 -0.0014208562 -0.014422009 0.007048656
000070 ab a9 a6 3b bb 41 c9 3c 08 e1 12 3d 09 c2 d9 3c
       0.005086144 0.024567476 0.035859138 0.026581781
000080 88 d0 d3 3c a4 90 fb 3b 03 ef 7d 3c 01 18 67 3c
       0.025856271 0.0076771546 0.015498879 0.014104844
000090 df 4f c4 bb eb 6b e4 3b c4 bc 8d 3c e2 84 05 3d
       -0.0059909667 0.0069708726 0.017301925 0.03259743
0000a0 af 00 43 3d fd 9d b1 3c 65 a5 b6 3c f0 3b 15 3c
       0.047608074 0.02168178 0.022295663 0.0091085285
0000b0 32 80 06 3c 02 78 c0 3b 5a e6 cd bc 72 3c 96 bb
       0.008209275 0.005873681 -0.025134254 -0.0045848424
0000c0 83 87 5c 3b 9f d7 1b 3d 09 ea 03 3d 25 59 0e 3d
       0.0033650107 0.03804743 0.032205615 0.034752984
0000d0 ee 08 b6 3c 6c 50 1d 3c 41 79 b9 3c 30 26 8a 3c
       0.022221055 0.009601694 0.022640826 0.016863912
0000e0 8c 96 25 3d 14 53 17 3d 93 19 0d 3d cb 3a ac 3b
       0.040426776 0.036944464 0.034448218 0.005256032
0000f0 93 54 ce bb ed 52 9a 3b 2d 94 ca 3a cc 77 0f 3c
       -0.006296703 0.0047095926 0.0015455537 0.008756589
000100 a0 2a 22 3d b2 35 99 3d 4c a9 3d 3d a0 0a 85 3d
       0.03959143 0.07480945 0.046304032 0.06496167
000110 e8 72 3a 3d 8b 2a ed 3c 9e bd ac 3c e0 da 3f 3c
       0.04551974 0.02895095 0.02108651 0.011709899
000120 72 b8 c6 3c 21 a2 56 3c f7 47 31 3d 2b fb ae 3d
       0.024257872 0.013100178 0.04328152 0.08544
000130 21 69 2a bb d5 54 bc 3c 56 b1 f9 3c 39 20 ea 3c
       -0.0026002603 0.02298967 0.030480068 0.028579818
000140 e8 e8 67 3c 1e a7 3b 3c 7b 76 b6 3c 5c e8 43 b8
       0.01415465 0.011453418 0.022273293 -4.6708024e-05
000150 e4 2f b7 bb e5 fc 43 bd b9 e5 f6 3c 2c c1 29 3d
       -0.005590426 -0.0478486 0.030138837 0.04144399
000160 35 a4 4d 3d 51 53 59 3d 4e eb 07 3d 3f 41 1f 3d
       0.05020543 0.053057972 0.03318339 0.038880583
000170 36 79 91 3c d3 c4 29 3c 5b 82 87 3c b2 2a a6 bc
       0.017757993 0.010361868 0.01654165 -0.02028403
000180 e5 81 77 3d 97 c8 1f 3d 6e 7b 42 3d 88 b6 3f 3d
       0.06042661 0.039009657 0.047480993 0.046804935
000190 35 6b e8 3c 88 96 14 3d 42 ff 06 3c b1 2a 60 3c
       0.028371433 0.03627637 0.008239569 0.013682053
0001a0 f9 3e f9 3c 36 b8 80 3c f9 29 64 3d a8 13 34 3d
       0.030425536 0.015712839 0.05570409 0.04396406
0001b0 b5 91 60 3d 48 0c 72 3d c4 a0 23 3d ff 3e 4c 3d
       0.054826457 0.059093744 0.03994824 0.049864765
0001c0 b0 5b 91 3c 14 7c a9 3c b1 7e e2 3c 25 29 ae bb
       0.017743915 0.020689048 0.027648302 -0.0053149634
0001d0 16 08 33 3a 5b ff 4d 3e b9 8d d1 3d ed 83 b9 3d
       0.0006829513 0.20116942 0.102321096 0.09058366
0001e0 d8 68 0a 3d ba 52 f4 3d 13 2e 28 3d a7 9a 29 3d
       0.033791393 0.11929841 0.041059565 0.041407254
0001f0 03 27 df 3c df 5e 35 3d 1f 83 d0 3c 38 4c 4f bc
       0.027240282 0.04427993 0.025453148 -0.012652449
000200 55 83 ab bd fc 0a a2 3c 1c 00 c8 bc 2c 09 62 bd
       -0.08374659 0.019780628 -0.024414115 -0.05518453
000210 76 73 4e 3e 2e 17 13 3f 0d 56 f6 bc dd 49 90 3c
       0.20161232 0.57457244 -0.03007033 0.017613346
000220 c2 ad 35 3d 97 67 89 3d 1b 00 c2 3d db b4 96 3d
       0.04435516 0.06709211 0.09472676 0.07358714
000230 b2 1d 6d 3d 3f a3 1b 3d 2b 46 0c 3c 23 a0 d2 3a
       0.057889648 0.03799748 0.008561651 0.0016069453
000240 56 1e b3 bc fd 17 4e 3c 35 ea d2 3c 82 9c 67 3d
       -0.021865051 0.012578961 0.025746444 0.05654574
000250 a9 db a2 3d 43 d0 85 3d 96 e5 5e 3d 90 a8 d8 3c
       0.07952053 0.065338634 0.05441817 0.026447564
000260 8f f5 9a 3c 9a 08 a4 3c eb b9 76 bc da 3f 5e 3c
       0.01891592 0.020023633 -0.015058975 0.013565028
000270 0a b8 25 3d 1a ed 8e 3d d7 55 c2 3d a5 84 68 3d
       0.040458716 0.06978817 0.09489029 0.056767125
000280 50 8f 47 3d 66 13 a8 3c 5d 5f 0e 3c 7b 38 04 3c
       0.048720658 0.020517062 0.008689729 0.008070107
000290 e0 ec 38 bd 68 b9 00 bb 2d 64 ad 3c 0c 1f 97 3d
       -0.045147777 -0.001964176 0.021165932 0.073789686
0002a0 45 79 86 3d 6e af 9c 3d a9 85 41 3d 85 32 8c 3c
       0.06566099 0.07650648 0.04724661 0.017113933
0002b0 f2 5c fe 3c ee 54 cd 3c 2f d6 37 3d ab fd 32 3d
       0.03105018 0.025064912 0.044881996 0.043698948
0002c0 9f db 93 3d 95 c4 7a 3c 4d 9f 23 ba 33 9a 97 3c
       0.07219624 0.015305658 -0.0006241694 0.018506145
0002d0 75 a5 10 3c e9 9d 80 3c 3a e1 29 3d ef 9e 8a 3d
       0.0088285105 0.015700297 0.04147456 0.067685954
0002e0 05 85 98 3d 22 69 d5 3d a7 4a ad 3d fc d4 59 3d
       0.074472465 0.10420443 0.084615044 0.053181633
0002f0 df dd 2f 3d 22 d1 f9 3c db 3b 2f 3d 85 70 4e 3d
       0.042936202 0.03049523 0.042781692 0.050400276
000300 06 f1 ee 3d 93 cc 1c 3e 90 ad e7 3b ad ca 0f 3d
       0.11667065 0.15312414 0.007070251 0.035105396
000310 0b e2 3d 3d 61 f3 2a 3d 2f 55 df 3c e6 c6 bb 3c
       0.04635815 0.04173601 0.027262298 0.02292199
000320 c6 83 09 3d 0a dd a7 3c ba b5 66 3c 7e 73 c3 bc
       0.033572935 0.020491142 0.014081413 -0.023858782
000330 eb b7 29 3d 27 9f 65 3d 1e 43 89 3d 32 8f 8a 3d
       0.041435163 0.056059983 0.06702255 0.067655936
000340 14 51 41 3d b7 04 5b 3d f0 04 dd 3c 93 b8 15 3d
       0.047196463 0.053471293 0.026979893 0.036552977
000350 60 fd 80 3d e1 ac 4d 3a 26 67 9e 3d 15 cd 5b 3d
       0.062983274 0.00078458904 0.07734518 0.05366238
000360 3c 8d 85 3d 22 39 7d 3d 4c 95 38 3d 81 3c 52 3d
       0.06521079 0.061822064 0.045064256 0.051327232
000370 50 70 73 3c 93 49 26 3d c5 98 94 3d a4 75 69 3d
       0.01485832 0.04059751 0.07255701 0.056996956
000380 92 ec 9c 3d 99 f0 84 3d a2 a7 9f 3d 56 ce a7 3d
       0.0766231 0.06491203 0.07795645 0.08193652
000390 0d 5e 71 3d a7 c7 8d 3d 60 28 00 3d fc 6d 66 3d
       0.058927584 0.06922846 0.031288505 0.056257233
0003a0 2e 8d a2 3d de 03 c6 3c 4d e5 d3 3c 0b 2b 4a 3e
       0.07937084 0.024171766 0.025866175 0.19742982
0003b0 95 6d d9 bd fd 67 c6 bd ae 17 84 3e 28 b8 c8 bd
       -0.10616604 -0.09687803 0.25799316 -0.0980075
0003c0 c2 57 99 3b f6 0a 92 3b 77 b7 ba bc 24 18 93 bd
       0.004679651 0.004456873 -0.022792561 -0.07182339
0003d0 ed 5c 16 bc 8f a6 a5 3c 51 6f 0e 3d 40 06 9a bc
       -0.009177429 0.020221023 0.03477413 -0.018801808
0003e0 74 dd e9 3b 71 da 0f 3f 2f 53 8f bc 61 17 0d bf
       0.007136995 0.5619269 -0.01749572 -0.551138
0003f0 3f 12 c5 bc d4 8b 44 3e d4 d9 02 3d 19 ad 92 3c
       -0.024056552 0.19193965 0.03194602 0.017904805

layers.0.bias f4 [256]
000000 0f 18 e3 3c e1 f3 9f 3d 48 f1 4a bd 4c 4e 80 3d
       0.027721433 0.07810188 -0.04954651 0.06264934
000010 b1 28 da bc e0 78 6b 3d f3 d2 9f 3d 03 c2 ec bd
       -0.026630731 0.057488322 0.07803907 -0.11560442
000020 d5 f7 53 3d dc d9 a7 bc 6d 22 96 3d 75 ae 67 3c
       0.051750023 -0.020489626 0.07330785 0.014140715
000030 7f e9 00 be 3c 36 bb bc 89 2f fd bc 60 98 0d be
       -0.12589072 -0.02285301 -0.030906456 -0.13827658
000040 72 e2 87 3d cb 06 8a 3d f8 51 d0 3d f4 5e 2f 3d
       0.06634988 0.06739577 0.10171884 0.042815164
000050 36 64 9f 3d 3e cb bb 3d 53 c8 1e 3d ac 2e 0d 3d
       0.077827856 0.09169625 0.038765263 0.034468338
000060 51 5c b3 3c a1 bf 44 bd b8 c1 da 3d a0 59 0a 3f
       0.021894606 -0.048034314 0.1068148 0.54043007
000070 d0 26 91 3d d7 b0 7e bc 98 2a d9 bb 86 49 d6 3d
       0.07087481 -0.015545092 -0.006627392 0.10463242
000080 38 4d 58 ba cb 58 2e 3e c6 29 09 3c 6a b0 17 be
       -0.00082512526 0.1702606 0.008371776 -0.1481339
000090 61 6b 0c bd 08 02 2c bd 73 08 cb 3d d6 2f a1 bd
       -0.034282092 -0.041994125 0.09913721 -0.07870452
0000a0 88 0b b6 3d 1d 1b 31 3d f6 be 2a 3e 05 98 20 bd
       0.08888918 0.043238748 0.16674408 -0.039207477
0000b0 de c5 ab 3d fe 9b 88 3d 26 5e 35 bd 7b 11 09 bd
       0.083873495 0.06670378 -0.04427924 -0.033463936
0000c0 f2 55 0d be 38 35 8c 3d 86 c8 9a bd 99 25 25 3c
       -0.13802317 0.06846088 -0.07557778 0.010079765
0000d0 92 3d 69 bd dc 52 ab bd 8b d1 be 3d 8c 89 19 bd
       -0.056943484 -0.083654135 0.09317311 -0.03748469
0000e0 e1 1d c2 3d 99 16 8c 3d de 6e c8 bd 87 9c b8 bc
       0.09478355 0.06840248 -0.09786771 -0.022535576
0000f0 46 ef 51 bd b1 bb 57 bd 40 15 9f 3d fc 91 88 3d
       -0.05125358 -0.05266923 0.07767725 0.06668469
000100 94 d9 87 3d ed 6f 97 3d f2 21 03 bd 35 48 03 3e
       0.066332966 0.07394395 -0.032014795 0.12820514
000110 c5 3d 88 3d 78 f4 7c 3d 35 0f 3f bd ff ee 8a 3d
       0.066524066 0.06175658 -0.046645362 0.06783866
000120 3f 1b cf bc a5 47 2f 3e 77 1e 65 3c 85 07 25 3e
       -0.025281547 0.17117174 0.013984314 0.1611615
000130 5d 59 b0 bc 86 eb 66 3c b4 ba d8 3c 49 42 1d bd
       -0.021526987 0.014094239 0.026456214 -0.038393293
000140 ad 11 91 3d 1d 31 8f bd 78 1f 13 3c e6 1f 15 3d
       0.070834495 -0.069917895 0.008979671 0.036407374
000150 1c 2c 9d 3d 60 af 53 3d 08 08 58 3d cb f2 d5 3c
       0.07674429 0.051680923 0.052742034 0.02611675
000160 98 1e ac bd 11 0f 2d 3d ef 86 a8 be 36 dc 6b bd
       -0.08404273 0.042250697 -0.32915446 -0.057583056
000170 93 75 82 bb 89 4c ff 3d 28 3b 54 3c f8 96 1a bd
       -0.003981301 0.1246577 0.012953557 -0.03774163
000180 25 e6 82 bd 8f cd 14 bd 32 f5 93 bd f9 29 0c 3c
       -0.06391553 -0.03632885 -0.07224502 0.008554929
000190 0f 8d 04 bb f6 f3 a1 ba 68 42 b1 3d 3a d1 d9 3d
       -0.002022568 -0.0012356031 0.08655244 0.1063561
0001a0 4e ca e0 be 16 ae 6f bd b6 94 12 3d 44 0c be 3c
       -0.43904346 -0.05851563 0.035786353 0.023199208
0001b0 a2 94 8c bd 3a b2 a0 3d 46 b0 37 bb a0 b6 42 3e
       -0.06864287 0.07846494 -0.002802865 0.19014978
0001c0 38 90 3c 3d e4 07 4b be 97 c5 38 bd 1c 8b 78 3b
       0.046035975 -0.19827229 -0.04511031 0.0037924713
0001d0 7a 02 af bd 7c ee 1e 3c 17 bb da bc d1 d9 ee 3c
       -0.08545394 0.009700414 -0.02670054 0.029156597
0001e0 72 e6 81 3d 06 e9 77 3d 71 cc 92 3d 88 d6 1e be
       0.06342782 0.060524963 0.071679 -0.15511525
0001f0 71 76 c6 3d 8b 50 b7 3d 9f 48 8e 3d 27 d0 a5 bd
       0.0969056 0.08950909 0.06947445 -0.080963425
000200 a1 fd 1e bd 45 18 81 bc b9 fc 28 bd 56 3e 46 bf
       -0.038816098 -0.015758643 -0.04125664 -0.7743887
000210 b4 4f 55 bd 8d 83 ae 3d 06 c3 12 3d 4a bd 0d bc
       -0.052077964 0.08521185 0.03583052 -0.008651087
000220 bc 94 33 3e b0 48 2a 3d 51 70 91 3d a9 b2 2b 3c
       0.17537206 0.041573226 0.07101501 0.010479608
000230 2a ed 5c be eb 32 cc 3d 21 75 9c 3d b0 35 56 3d
       -0.21574846 0.09970649 0.07639528 0.052297294
000240 c5 e4 88 3d 6a 6c 58 3d e2 f9 2c bd c9 ee 9c bd
       0.06684259 0.052837767 -0.042230494 -0.07662732
000250 e1 17 8f 3e d3 5f 58 bc 55 14 35 bd 24 64 ab 3d
       0.27947906 -0.01320644 -0.044208843 0.0836871
000260 1a 80 a0 3d 01 82 8a 3c 32 c9 d7 bc 9c 39 41 3c
       0.078369334 0.016907694 -0.026341055 0.01179352
000270 de e1 29 3d 56 9e ad 3d 62 4d 6d 3d 71 90 6f 3d
       0.04147517 0.08477466 0.057935126 0.05848736
000280 30 7b d8 bc 1a 1b 74 bb a4 b2 fd 3d 82 2e 7d 3d
       -0.026425928 -0.00372476 0.123875886 0.06181193
000290 ac dd 2d 3e 70 6b 5d 3c d8 1e bc 3d 9d d2 d9 3e
       0.16979092 0.013514385 0.091855705 0.42543498
0002a0 f1 9c cd bd 3b 7f 8d 3d a4 e9 19 3c 94 d8 99 3d
       -0.100397 0.06909033 0.009394083 0.07512012
0002b0 15 0a c3 bd bd 18 0a 3c e7 5c 8f 3d b4 27 39 bd
       -0.09523407 0.00842875 0.070001416 -0.04520388
0002c0 6d 40 7a 3d 45 5e a9 bd a9 ba 06 bc 6f 8e e4 3d
       0.061096597 -0.082699336 -0.008223214 0.111599796
0002d0 61 14 6f 3d e4 11 ce 3d 23 a4 02 3e 1c 36 3c 3d
       0.058369044 0.10062006 0.12757926 0.04595004
0002e0 ff 5c 20 3d eb 8c 61 3e 4f 2b 17 be e2 e5 be bd
       0.039151188 0.22026412 -0.14762615 -0.093211904
0002f0 70 db 1f bc c7 70 9a 3e 95 fc 37 bd 75 59 a9 3d
       -0.009756908 0.30164167 -0.044918615 0.08269016
000300 07 06 43 3c 48 a1 66 3d 0f 7a fa 3c 31 b2 86 3c
       0.0119032925 0.056306154 0.03057578 0.01644239
000310 10 ec 5c 3d d5 75 8a 3d 86 25 1b bd fb b1 9c be
       0.053936064 0.06760756 -0.037877582 -0.30604538
000320 2c b4 b5 3d a1 8e 24 be f4 40 96 bd 79 98 84 3d
       0.08872256 -0.16070034 -0.073366076 0.06474394
000330 26 ef 4f bd 2f 77 59 3d 8b 81 a8 3d f6 93 34 3c
       -0.05076518 0.053092178 0.08227833 0.011021605
000340 dc 0f 24 3e 11 8a c6 bc a1 86 3c 39 10 f3 c2 3d
       0.16021675 -0.024235757 0.0001797923 0.09519017
000350 b4 48 29 3e 00 cf 9d 3c 60 41 ac bb fb 51 08 bd
       0.1653164 0.019263744 -0.0052568167 -0.033281308
000360 b8 cd 2a be 5c ab 22 3d f6 ec 67 3e 58 34 17 3d
       -0.16680038 0.039714202 0.22648987 0.036915153
000370 b9 88 81 3d 5e 6d 8e 3d 07 97 93 bd ff 12 1b 3d
       0.06324906 0.06954454 -0.072065406 0.037859913
000380 21 e0 ba 3d f6 0c 4c bd ed 82 4a 3d 04 d9 34 bc
       0.091247804 -0.049817048 0.049441267 -0.011038069
000390 3b 27 52 bd 42 04 15 3d a0 da 6f 3d 47 7e 39 3d
       -0.051306944 0.036381014 0.058558106 0.045286443
0003a0 32 55 6a 3d 49 5b 45 bd 74 f6 79 3d 3b 37 6d 3d
       0.057210155 -0.04818276 0.06102605 0.057914
0003b0 d6 05 db bd 33 b1 0b be d9 21 1b 3c 65 84 b4 3e
       -0.106944725 -0.13641815 0.009468519 0.3525726
0003c0 84 58 2c bd e5 de af 3d dd 71 82 3d b0 40 59 3d
       -0.042076603 0.08587436 0.06369374 0.053040206
0003d0 2f 11 4d bd 29 ce 85 3d 55 c9 10 be 74 11 16 bc
       -0.050065216 0.065334626 -0.14139302 -0.009159435
0003e0 07 7a 1e 3d 29 fd 8a 3d d9 8f 8d bc 8b 99 a1 3d
       0.038690593 0.06786568 -0.017280506 0.07890614
0003f0 a9 9e 18 bd 34 bc 8c 3d ac 6f 77 3c 48 92 2f bd
       -0.037260685 0.068718344 0.015102308 -0.042864114

layers.2.weight f4 [256, 256]
000000 5d a0 7d bd 00 dc 9a bc 44 20 8b 3c 7b ed 16 bd
       -0.061920512 -0.018903732 0.016983159 -0.036847573
000010 8b 66 50 bf 19 3f 01 bd 71 d9 32 3c 67 4c 28 3d
       -0.8140647 -0.031554315 0.0109161 0.041088488
000020 c0 62 c6 bc e1 14 09 3d 13 8b 2c 3c dc e1 d1 3c
       -0.02421701 0.033467177 0.010531205 0.025620393
000030 9a db ce 3c 4e 3f 65 3c d3 72 04 3d 7b 78 c4 3c
       0.025251199 0.013992144 0.032336067 0.02398323
000040 00 f2 f3 bc fa b2 d2 bc b7 65 f1 3c 75 25 d9 bd
       -0.02977848 -0.025720108 0.029467447 -0.106028475
000050 ba f3 3d 3c b0 a2 c1 3d 32 a1 bf be f7 d7 5e bc
       0.0115937535 0.09454858 -0.3742767 -0.013601295
000060 fe 96 5c 3e 7c a3 95 3b 12 2f 88 be 48 9b 5f 3e
       0.21541974 0.004566608 -0.26598412 0.21836579
000070 49 fd 13 be 08 df a7 bc 44 5d 26 3c ea 32 68 3c
       -0.1445209 -0.020492092 0.010154072 0.014172295
000080 b9 51 59 bd 95 21 45 3d c4 c2 b8 be 52 e7 92 3c
       -0.053056452 0.04812773 -0.36086094 0.017932568
000090 7d 42 02 3d 15 c3 07 3d ba b0 43 3c 3f f3 7f bd
       0.03180169 0.03314503 0.01194399 -0.062487837
0000a0 49 b7 3a 3c 34 d4 ee bc 81 9d 03 3e c3 dc de bb
       0.011396238 -0.02915392 0.12853052 -0.006801219
0000b0 02 48 b4 3b 97 c5 61 bc 81 ca a2 3c 87 fe 19 3f
       0.005501748 -0.013780019 0.019871952 0.60154
0000c0 5c 8b d5 3b ff a9 af bc 46 b7 a9 3d 86 65 bd 3d
       0.006516857 -0.021443365 0.0828691 0.0924788
0000d0 4b ce 07 3f 8d 7c 42 bb 77 de 9b 3c 6b 83 0c bf
       0.53049153 -0.0029676289 0.019026978 -0.5488803
0000e0 7c dc 60 3c 6a 57 70 bc ef 2b 81 3e 50 f8 23 38
       0.013724443 -0.014669279 0.2522883 3.9093487e-05
0000f0 3a 40 99 bc 0b 06 a4 3d f8 0a 9f bb 17 ce dd bc
       -0.018707383 0.08008965 -0.0048536025 -0.02707581
000100 31 84 e6 bc 29 ae 87 be c1 c0 34 3f 38 b8 ad be
       -0.028139206 -0.2650006 0.7060662 -0.3392961
000110 ae e4 e0 bc ed 2a b9 bc d3 1e ca 3b 55 62 b8 be
       -0.027452793 -0.022603476 0.0061682253 -0.3601252
000120 6a 9b 4e 3e 3f fb 1e 3d 7f f7 08 bc 30 d2 ce 3d
       0.20176473 0.038813826 -0.008359789 0.10098684
000130 07 0c 36 3d d4 09 f8 3c 22 00 80 3d ea 03 16 3c
       0.044445064 0.030278124 0.06250025 0.009156207
000140 cb 5d de 3b 9d 35 33 3b 97 f5 80 3d b2 44 27 3d
       0.0067860833 0.0027345188 0.062968425 0.040836997
000150 b1 28 29 3d 34 c1 f3 bc 95 79 32 bd 0e 0d b5 3e
       0.041298572 -0.029755212 -0.04357298 0.35361522
000160 5b a6 ad 3d bf 4f 32 bd 88 c7 01 3d a0 f3 26 3e
       0.084789954 -0.043533083 0.03168443 0.16303873
000170 c2 39 56 bc d6 9e a7 3c 6a df bb 3d dd 1a 8f 3d
       -0.013075294 0.020461481 0.09173472 0.06987546
000180 d1 6f 1d 3c 68 7b c2 3c c7 cc 11 3d cc 08 94 3d
       0.009609179 0.023740485 0.03559568 0.0722824
000190 70 8c d2 3d 16 1e 80 3c 10 1b 6c bc 55 ab 79 3c
       0.102806926 0.015639346 -0.014410749 0.015238603
0001a0 c7 9b 10 3d 4a 2e 66 3b 87 95 8d bb a8 50 53 be
       0.03530481 0.0035122805 -0.0043208036 -0.20636237
0001b0 10 65 3f bc 18 0d a9 bb c5 81 a2 3e eb b9 63 3e
       -0.01168181 -0.0051590316 0.3173963 0.22238891
0001c0 50 b8 16 bf dd 36 42 3e ce 2b 92 3c 38 a6 54 3e
       -0.5887499 0.18966241 0.017843153 0.20766532
0001d0 4c b7 ef 3a 04 22 30 3d 42 f6 94 3c 06 05 75 3c
       0.001828888 0.04300119 0.018183831 0.014954811
0001e0 a2 38 0b bd 11 70 3f bc fa c0 f9 be b7 ec dc 3a
       -0.033989556 -0.011684434 -0.48780042 0.0016855214
0001f0 c1 3e 62 be bb 34 a2 bc a4 10 53 3c 21 c3 38 3c
       -0.22094251 -0.019800534 0.012882385 0.011276991
000200 c0 d5 0c 3f d9 a7 1a 3d 84 69 b9 be 58 bc d1 3d
       0.55013657 0.03775773 -0.36213315 0.10241002
000210 b4 7c a3 3c 90 4f 80 bc d3 39 0e bd 85 c8 d3 bc
       0.019956924 -0.015662938 -0.034723114 -0.025852451
000220 6c ee 30 3d 2e 9b 93 3e 0b 0a c8 bd 88 92 69 be
       0.043196127 0.2882933 -0.097675405 -0.22809803
000230 d5 4b 3a 3d 6c 0d 6b 3c 64 7c 70 3c ce 82 07 bc
       0.045482475 0.014346462 0.014678095 -0.008270932
000240 5c bc 6a bc e4 79 00 bc 86 1a 24 3d 38 31 a1 3c
       -0.014327135 -0.007841561 0.040064357 0.01967679
000250 d5 22 61 3e 36 9b 3c 3d f7 a0 16 3f 52 d6 96 3d
       0.21985944 0.04604646 0.5883936 0.07365097
000260 11 99 55 3c 88 09 ce 3c 96 f8 50 be 87 33 7f 3d
       0.013036982 0.02515103 -0.20407328 0.062305
000270 99 d7 ad bb 24 56 50 bc 24 54 07 bf 88 18 31 bc
       -0.0053052423 -0.01271585 -0.52862763 -0.010809071
000280 80 da 00 3d 0a 73 b1 3c c4 54 4f 3e b3 09 3e ba
       0.031458378 0.0216613 0.2024718 -0.000724937
000290 ad 49 2c 3d e6 da 84 be 09 5f 29 bf 38 61 e3 3d
       0.04206245 -0.25948256 -0.6616064 0.111025274
0002a0 de aa 70 3d 96 dd 99 bc 84 d9 f2 be b9 d2 c8 3e
       0.0587567 -0.018782418 -0.47431576 0.3922327
0002b0 3d ef bb 3e 05 83 05 3d 79 14 35 3c f8 10 cf 3c
       0.36705962 0.032595653 0.011052244 0.025276646
0002c0 c0 e2 95 3e c8 ca f3 3c a6 58 13 bd e4 02 44 be
       0.2927456 0.02975978 -0.035973214 -0.19141728
0002d0 e8 3a 38 bc ea c0 4c be d9 46 c5 3c 9b 06 8c bc
       -0.011244513 -0.19995466 0.024081634 -0.017092993
0002e0 79 57 3f 3e ee 71 25 3e 03 a8 41 3c d6 6b 97 3b
       0.18685712 0.16156742 0.011819842 0.0046210093
0002f0 67 b9 59 bd 2c a1 17 3d 64 86 83 3c de 3f 49 bc
       -0.05315533 0.03701894 0.016055293 -0.0122832935
000300 31 3e 46 3d 92 05 dd bc 42 1b 7e be 5d 4b b0 3c
       0.048399154 -0.026980195 -0.24815086 0.021520311
000310 52 20 db be 4b 6f 06 39 37 03 8a bb 99 ca 06 3d
       -0.42798096 0.00012820696 -0.004211809 0.032908056
000320 5d 5d 49 3c b9 2f b2 3c 57 0d d8 3c 4c fd a3 3b
       0.012290326 0.021751272 0.026373548 0.0050045606
000330 f4 11 3e 3b 29 9a c0 be fe b7 4f 3c 8e 4a 00 3d
       0.00290024 -0.37617615 0.0126781445 0.0313211
000340 c7 11 12 3e fd 47 d2 bd c4 d6 a6 3c 3d d4 36 3c
       0.14264594 -0.10267637 0.02036608 0.011159
000350 96 9c e9 3d d1 24 31 bb b7 0e f6 3c 6e 2b 5b 3e
       0.114068195 -0.002703 0.030036313 0.21403286
000360 73 4d ea 3b ff 46 15 3c fc 6f 67 3e db ef 87 be
       0.007150346 0.009111165 0.22601312 -0.26550183
000370 8a 43 91 bc 1d 6c c9 bb 92 1c 6d 3e c5 bc a0 bb
       -0.0177324 -0.0061469213 0.2315543 -0.0049053156
000380 ad 30 8c 3c fc 69 a8 3b e0 eb ee bb a5 4e c6 bc
       0.017113054 0.0051395874 -0.007291302 -0.024207423
000390 fb e1 c8 3b 1e ce 7c be c3 a9 9f be ff da 4e be
       0.0061304546 -0.24688002 -0.31184205 -0.20200728
0003a0 99 92 a1 3b 37 f3 cc 3e 12 0d 01 bd 55 39 d7 bc
       0.004930806 0.40029308 -0.031506605 -0.026272455
0003b0 fe 2c 63 bb 43 81 11 3b 37 bf ce be 14 aa 16 3e
       -0.0034664269 0.002220229 -0.4038026 0.14713317
0003c0 1a 0a d6 bc 06 77 02 3d ca 8b c0 bc 6f bc 1a bc
       -0.026127864 0.03185179 -0.023504157 -0.00944434
0003d0 8e bb eb 3b a6 3e b9 3c 19 86 b6 3c bb 6f bc 3d
       0.007193989 0.02261288 0.02228074 0.092009984
0003e0 19 66 49 be f7 91 a7 bc 0c de a1 3e 62 b8 b9 be
       -0.19667853 -0.020455344 0.3161472 -0.36273485
0003f0 eb d7 bb 3b 3e dc 4b bb fe fc 98 be ff e7 cb 3e
       0.0057325265 -0.0031106616 -0.29880518 0.39825436

layers.2.bias f4 [256]
000000 79 44 21 3e 47 7f 50 3e 7c c3 a8 3c e0 fa 79 3c
       0.15748776 0.20361052 0.020601027 0.015257567
000010 c4 3a 11 3e 9c 6e 11 3e 39 d3 d5 3c c4 e4 49 b8
       0.14182574 0.1420235 0.026101695 -4.813519e-05
000020 4b de 85 bb ae d4 06 3e f0 e8 07 3e 27 4d 12 3d
       -0.0040853373 0.13167068 0.13272452 0.03571811
000030 df 41 a3 38 1c 59 62 3c 82 9f 05 3e 51 52 ca 3c
       7.784715e-05 0.013815191 0.13049129 0.024697455
000040 03 e3 98 bc 42 48 16 3e 8e 95 59 3e 23 a3 ed 3d
       -0.018662935 0.14676002 0.21248457 0.116033815
000050 2f b6 91 3c 6a 1d f8 3d fc 92 ae 3c ca b0 9c 3e
       0.017787067 0.12114985 0.021310322 0.3060363
000060 1e 46 0e 3e 56 d4 19 3e 9f 59 46 3e ac ed 10 3e
       0.13893935 0.15022406 0.19370125 0.14153165
000070 d8 c2 1f 3e 0e c9 06 3e 57 e5 37 38 cc c6 0c 3e
       0.1560167 0.13162634 4.384419e-05 0.1374771
000080 3e 40 b6 3c fd 06 cb 3c be 97 44 3d 34 f2 34 3e
       0.02224743 0.024783606 0.047996275 0.17670518
000090 d4 ce 80 3d 29 11 ec 3c b4 1e 89 3c f6 3b 9e 3c
       0.06289449 0.028816776 0.016738273 0.019315701
0000a0 8b 14 57 3d 49 92 de 3d 02 66 78 3c 08 82 91 3a
       0.052509826 0.108677454 0.015161039 0.0011101374
0000b0 3a 2b 93 3c 11 e9 37 3e bb 84 77 3c 90 51 18 3e
       0.017964948 0.17960002 0.015107329 0.14874864
0000c0 44 2e 0f 3e 46 27 9f 3c 4e cf 2e 3c cb 63 67 3e
       0.13982493 0.019427907 0.0106695425 0.22596662
0000d0 dd f0 a2 3c 9e 28 7f 3e 6e d0 20 3e b8 9f 05 3e
       0.019890243 0.24917838 0.1570451 0.13049209
0000e0 4b 82 03 3e 55 a0 bb 3c cf 16 2e 3e a5 92 0b 3e
       0.12842672 0.0229036 0.17000888 0.13630159
0000f0 97 9e 22 3d 4f 86 75 3e b1 41 15 b8 73 60 8c 3c
       0.039702024 0.23977016 -3.5585548e-05 0.017135834
000100 93 f2 08 3e b9 64 b7 b9 ea 83 03 3e 61 f5 01 3d
       0.13373785 -0.00034979524 0.1284329 0.031728152
000110 23 ed 67 3e 4d 70 6b bd 91 84 af 3c 63 46 a4 3d
       0.22649054 -0.057480145 0.021425517 0.08021238
000120 a8 ef e8 3d 3d a1 31 3e 98 86 33 3e a3 ad 25 3e
       0.11373836 0.17346664 0.17531812 0.16179518
000130 f5 bf 71 3e 10 82 1a 3c 4d e3 2c 3c c6 bf a5 3c
       0.23608382 0.009430423 0.01055224 0.020233046
000140 eb fa 5b bb 18 33 ee b8 76 36 11 3e 21 68 ee 3d
       -0.0033566307 -0.00011358241 0.14180931 0.11640955
000150 e8 5c f0 3d 70 70 9e 37 45 82 e9 3d 6b c4 67 3c
       0.117364705 1.8887426e-05 0.114018 0.014145951
000160 f2 86 56 3e 8c b3 07 3e 11 30 4d 3e 70 1a 06 3e
       0.20949915 0.13252085 0.20037867 0.13096023
000170 c3 74 0d 3e dc be 45 3d 2e 52 73 3e 1d 86 7f 3e
       0.13814072 0.04827772 0.23761818 0.24953504
000180 2c c2 95 3c f0 c9 a4 3d 64 04 81 3e 46 71 30 3e
       0.018281065 0.08046329 0.25198662 0.1723071
000190 8c 82 76 3e 14 3c d7 3d 9d e0 07 3e 8c 44 09 3c
       0.24073237 0.10509506 0.13269277 0.008378159
0001a0 80 f5 07 3e cd d6 3f 3e d4 4c 81 b7 34 07 01 39
       0.13277245 0.18734284 -1.5413774e-05 0.00012305082
0001b0 1a 4a 7d 3e 25 ca 87 3c 1e 55 07 3e a2 e9 86 3d
       0.24735299 0.016575882 0.13216063 0.06587531
0001c0 92 3c 09 3e b8 7d ca bb 08 5e 26 3e 10 5b 3f 3e
       0.13402012 -0.0061795376 0.16246808 0.18687081
0001d0 01 52 18 3e 09 7f 00 3d 64 04 00 3e 6f f5 e2 3d
       0.14875032 0.03137115 0.12501675 0.11081969
0001e0 99 11 58 3d 73 f6 cd 3d a9 90 0f 3e df 58 0e 3e
       0.052751157 0.10056772 0.14020027 0.13901089
0001f0 7a ba 67 3e 4e ba 0b 3e 4d 0c 97 3e 19 49 7c 3e
       0.22629729 0.13645288 0.29501572 0.2463726
000200 13 46 1e ba 13 72 06 3e 66 b3 89 3c 30 70 13 3e
       -0.00060376636 0.13129453 0.016809177 0.14398265
000210 54 73 20 3e 62 95 0c 39 d5 34 65 3c d3 5e 05 3e
       0.15668994 0.0001340709 0.013989647 0.13024454
000220 7c c9 e9 3d ae 88 25 3d 75 ec 98 3e c3 c0 2a 3e
       0.11415383 0.04041355 0.29867902 0.16675095
000230 a2 04 fa 3d 67 7b e1 3d 24 8c 08 3e 0a 50 17 3e
       0.12207915 0.11009865 0.1333471 0.14776626
000240 5b 69 ca 3b 05 83 0a 3e 18 62 20 3b d3 5d 2a 3e
       0.00617711 0.13526542 0.002447253 0.16637354
000250 d4 ac b1 3d db 91 96 3e 83 58 77 3e 0e fe 8e 3c
       0.086755425 0.29408154 0.24154858 0.017455127
000260 b0 fc 5b 3e e6 34 08 b8 86 d2 06 3e ee ce 7b 3e
       0.21483111 -3.2474192e-05 0.13166246 0.24590656
000270 be d0 44 3e 91 8b e8 3d 89 c5 40 3e 8b 3e db 3d
       0.19220254 0.11354745 0.18825354 0.107052885
000280 cb 91 84 3d 52 57 6d 3e 7a e7 73 3e 14 5f ea 3d
       0.0647312 0.23177841 0.2381877 0.11443916
000290 dd 72 e7 3b 68 5b 03 3e 99 ff db 3d b2 8a 06 3e
       0.0070632533 0.12827837 0.10742111 0.13138846
0002a0 88 e1 bd 3d 14 08 4e 3e 15 bd 63 3e 62 12 85 3e
       0.09271532 0.20120269 0.22240098 0.25990587
0002b0 0b e8 77 3c bd 2b 62 3d 5b e4 7c 3e 94 69 ee 3d
       0.015131007 0.055217493 0.24696486 0.11641231
0002c0 46 48 13 3e e9 09 58 3e e2 dd 99 3b a1 c1 0a 3e
       0.14383039 0.2109753 0.00469564 0.13550426
0002d0 9e db 1f 3e e2 1f fd 3d dd 6e 25 3e 1f 32 fb 3d
       0.15611121 0.12359597 0.16155572 0.12265419
0002e0 00 bb e8 bb f3 a5 4b 3d a7 a7 4b 3e e4 5e 50 3e
       -0.0071023703 0.04971881 0.19888173 0.20348698
0002f0 a9 d4 44 3e 1d 21 2f 3d 4c 1a ac 3c 4f e3 07 3e
       0.19221748 0.04275619 0.021008633 0.13270305
000300 51 43 16 3e a6 54 7a 3d c2 01 a2 bc 73 88 9b 3c
       0.14674117 0.061115883 -0.019776229 0.018985962
000310 7f 72 00 3e e6 a4 ed 3d 42 1e 16 3e 5d 68 8e 3c
       0.12543677 0.116037175 0.1465998 0.017383749
000320 ed 90 58 3e 9c d5 9f 3c e3 d5 9a bc 7a 66 09 3e
       0.21149035 0.019511037 -0.018900817 0.13417998
000330 da 89 99 3c c2 56 af 3d 93 a4 af 3c 83 3f 0f 3e
       0.01874249 0.085614696 0.02144078 0.13989072
000340 8e 93 41 3e 38 54 1a 3d 15 bb 11 3e 71 a7 ff 3d
       0.18903944 0.037677974 0.14231522 0.12483109
000350 2f 80 38 b9 b1 0f 70 3e 1a 0a e3 b8 85 00 84 3c
       -0.0001759536 0.23443486 -0.00010826085 0.016113529
000360 42 38 74 3c b5 78 d9 3b 44 c2 15 3e 40 2b b4 3c
       0.014905991 0.006636704 0.14624888 0.02199328
000370 1e c6 0b 3e cd 95 06 3e 90 2d 9c 3c 61 ac 68 3e
       0.13649794 0.13143082 0.019064695 0.22722007
000380 43 48 bd 3d 4d 75 10 3e 53 21 c5 3d fe df 21 3e
       0.092422985 0.14107247 0.09625497 0.15808102
000390 af ab a7 bc 92 54 02 3e 8e f9 9f 37 c8 78 e7 3d
       -0.020467607 0.12727574 1.9070485e-05 0.11302334
0003a0 98 81 05 3e 6f c3 12 3e 95 29 03 3e 48 d1 49 3e
       0.13037717 0.14332364 0.12808831 0.1970874
0003b0 ec 00 d3 3d c0 1d aa 3c 06 32 86 3e 5a e1 b1 3c
       0.1030291 0.020766139 0.2621004 0.021713901
0003c0 0e d4 aa 3c d2 85 4b 3e 14 d3 1a 3e ce bb 8d 3e
       0.020853069 0.19875267 0.15119582 0.27682346
0003d0 74 30 04 39 16 ac fe 3d 12 18 2f 3b 0f 4d 98 3c
       0.00012606551 0.124351665 0.0026717228 0.018591432
0003e0 19 78 8b 3c d0 75 96 3d 16 fa 09 3e 15 fd 02 3e
       0.01702504 0.0734669 0.13474306 0.12791856
0003f0 45 9f b3 bb c5 21 75 3e 7a fd 0f 3e da 78 7a 3e
       -0.005481633 0.23938663 0.14061537 0.24460164

layers.4.weight f4 [4, 256]
000000 24 f2 47 be f4 84 32 3f e5 e0 1d 3e c6 84 0a 3f
       -0.19525963 0.6973412 0.15417822 0.54108846
000010 87 2a 3e be 3d 4e 4a be 21 b8 01 3f fc 3f fd b8
       -0.1857091 -0.19756408 0.50671583 -0.00012075898
000020 b0 f2 cd 3e 64 e3 38 be 15 29 50 be d4 2d 01 3f
       0.40224218 -0.18055493 -0.20328172 0.50460553
000030 62 85 0a 39 ac ee 31 3e d4 c3 32 be 04 61 e8 3e
       0.00013210395 0.17376202 -0.17457515 0.45386517
000040 90 d2 2c 3f ba 22 46 be 5f 19 f1 3e 65 f0 2f be
       0.6750879 -0.19349185 0.4708967 -0.17181547
000050 09 ec 1d 3e fd f8 a4 3e a0 db 0c 3e 48 b6 3c 40
       0.15422072 0.32221213 0.13755655 2.9486256
000060 a0 4f 53 be ac 9e 4a be 26 01 31 3f e5 a0 28 be
       -0.20635843 -0.19787091 0.6914238 -0.16467626
000070 07 a4 44 be 7d 5b 53 be b3 0c e9 38 90 48 3f be
       -0.19203196 -0.20640369 0.00011112671 -0.18680024
000080 8d 80 11 3f ed 6f ec 3e 88 4e 4f 3e fb 69 7f 3e
       0.5683678 0.46179143 0.20244801 0.24942772
000090 a0 2e ef c0 9e 16 35 3f bc 67 12 3e ee 69 1c 3e
       -7.4744415 0.70737636 0.14297384 0.15274784
0000a0 26 48 f4 3e 99 ca 28 be 68 a1 68 bd f5 79 c4 3e
       0.47711295 -0.16483535 -0.056794554 0.38374296
0000b0 e4 67 fa 3e f9 96 3d 3f 30 2f 18 3e 24 9e 35 be
       0.48907387 0.7405849 0.1486175 -0.17736107
0000c0 45 bc 57 be 20 f8 10 3e c8 c6 eb 3d c7 5b 42 3f
       -0.21067913 0.14157152 0.11512524 0.7592129
0000d0 e7 11 01 3e a0 a9 84 3f 8e 01 e8 3e f4 b6 26 be
       0.12604485 1.0364265 0.45313686 -0.16280729
0000e0 ba 14 4c be 2f a7 13 3f f3 be 90 3f 2a c2 5a 3f
       -0.19929782 0.57676977 1.1308273 0.8545252
0000f0 a9 8f e4 3e 41 a7 6c 3f 90 14 0a b9 b4 26 0f 3e
       0.44640854 0.9244271 -0.00013168366 0.13979608
000100 85 7f 47 be a5 89 96 b8 47 69 48 be 67 8d 05 3f
       -0.19482239 -7.178196e-05 -0.1957141 0.5216889
000110 6c 82 62 3f 7d 34 f2 c0 88 53 0e 3e a1 69 13 be
       0.8848026 -7.5689073 0.13899052 -0.14395763
000120 cb f7 1b be a8 be 6e be f0 0c 88 3e 86 72 4a be
       -0.15231244 -0.23314917 0.2657237 -0.1977025
000130 c4 dd 88 3f 45 b2 ee 3e 64 0a 0e 3e 2d 04 23 3e
       1.0692677 0.46620384 0.13871151 0.15919562
000140 5c cf 1d 3e 3b 6f a3 38 25 f5 43 be 16 4b 63 3e
       0.15411133 7.793164e-05 -0.19136484 0.22196612
000150 be 4d 5b be ff f2 fe b9 e0 e5 35 be b8 32 e9 3e
       -0.21416375 -0.00048627701 -0.17763472 0.45546508
000160 5f d7 b5 3f c2 e7 57 be 4c 8e 5e be 41 77 5a be
       1.4206351 -0.21084502 -0.2173397 -0.21334554
000170 23 fa 4f be 83 5e 8a be 2c d6 4b 3f 96 36 ae 3f
       -0.20310263 -0.27025232 0.79623675 1.3610408
000180 32 5e dd 3e e0 3a 24 be da 8f 95 3f ae 6a 73 3e
       0.43235928 -0.16038084 1.1684525 0.23771164
000190 3b ca 5b 3f 83 99 1e be 31 e2 49 be ca 33 e3 3e
       0.85855454 -0.15488248 -0.19715191 0.4437545
0001a0 a9 76 3c be b1 59 5c be b2 c0 3b b8 cf 18 34 38
       -0.1840464 -0.2151859 -4.4763736e-05 4.293845e-05
0001b0 4f 2a 22 40 14 53 6f 3e 1d db 5b be 8e 80 b8 3e
       2.5338323 0.23371536 -0.21470304 0.3603558
0001c0 cb d0 39 be c1 43 bd 3e 33 b7 a6 3e fc 29 6b be
       -0.18146054 0.36965755 0.32561645 -0.22965235
0001d0 b6 d3 db be f5 28 bb bd e0 1c d5 3e 0a 51 15 be
       -0.4293496 -0.09138671 0.41623592 -0.14581695
0001e0 80 73 ea 3e 9f 77 07 be 86 ac 3c be 93 ed 7c be
       0.45791245 -0.13229226 -0.18425187 -0.24700002
0001f0 1e b7 19 3f a2 6e 46 be 26 2a c9 3f 67 47 8f 3f
       0.6004504 -0.1937814 1.5715988 1.1193665
000200 4b f5 3b 3c 63 49 3e be 6b 8e f0 3e 6c 6c 4b be
       0.011472057 -0.18582682 0.46983656 -0.19865578
000210 39 a8 59 be dc 08 0b b8 66 3d f7 3d 33 de 16 be
       -0.21255578 -3.3148433e-05 0.12072258 -0.147332
000220 11 fa 2c be 07 fd de 3e 2e c5 e9 3f 26 ae 59 be
       -0.16892268 0.4355242 1.82633 -0.21257839
000230 ef 8e 43 be 22 ff 2b be 80 67 4e be 62 60 2c be
       -0.19097494 -0.16796544 -0.2015667 -0.16833642
000240 4a 06 f5 3e 67 16 3e be 85 37 e2 3e a0 76 58 be
       0.4785636 -0.18563233 0.44182983 -0.21139002
000250 24 5d 25 be 60 5f 84 40 10 8a 30 40 b7 62 f7 3e
       -0.16148812 4.1366425 2.7584267 0.483175
000260 7c 03 19 3f ba 82 05 b9 19 84 2a be a7 67 b0 3f
       0.5977094 -0.00012732568 -0.16651954 1.3781632
000270 a1 18 e6 3e d6 ca 4f be 7f cb cb 3e 23 d4 03 be
       0.44940665 -0.2029222 0.39803693 -0.12873892
000280 ec 70 9e be ba b5 30 3f 99 81 e6 3e 48 0f 96 3e
       -0.30945528 0.6902729 0.4502075 0.29308534
000290 06 e0 d8 3d 04 8b 3f be 6e a3 65 3f dd 5c 36 be
       0.10589604 -0.18705374 0.897025 -0.17808862
0002a0 c5 ae 31 be 6b ed 10 3f 90 eb 66 3f dc fd 93 3f
       -0.17351826 0.5661227 0.9020319 1.1561847
0002b0 9d b8 17 3e af c9 f6 3e 59 ea d3 3f e6 c7 28 be
       0.14816518 0.48200747 1.6555892 -0.16482505
0002c0 38 f1 37 be 5d e5 d5 3e 3a 3c 8f 3e f1 09 6e be
       -0.17963111 0.41776553 0.27975637 -0.2324598
0002d0 a7 fe 4f be 8d 23 1c be 2f 11 70 be 60 9e 29 be
       -0.20311986 -0.15247937 -0.23444055 -0.16564322
0002e0 97 7e af 3e ad 39 d3 3e 09 25 5a be 87 50 4d be
       0.34276268 0.4125494 -0.2130319 -0.2005025
0002f0 b4 95 3d be 77 7e 74 3e fe ce 1d 3e 2c c4 3a be
       -0.18514138 0.23876368 0.15410993 -0.18238896
000300 f7 36 36 be e5 b9 b0 3e 4b e8 80 be 57 04 16 3e
       -0.17794405 0.34516826 -0.25177225 0.14650093
000310 92 28 4d be f1 dc 1d be b8 95 52 be ba 39 16 3e
       -0.20035008 -0.15416314 -0.20564926 0.14670458
000320 8f de 0f 3f 53 12 1e 3e 91 84 2b 3e de 26 2f be
       0.5619897 0.15436678 0.16749789 -0.1710467
000330 f6 23 13 3e 8d e6 37 3e a8 c6 1b 3e 51 4d 3b be
       0.14369187 0.17959042 0.152125 -0.18291213
000340 6c ef dc 3e 57 f3 70 3e ed 30 5a be cf ec 3b be
       0.43151414 0.23530327 -0.21307726 -0.18352054
000350 e3 5e c1 b8 e1 a0 32 3f 25 b3 14 b9 4d 3e 1a 3e
       -9.220631e-05 0.6977673 -0.00014181116 0.15062828
000360 76 71 2f 3e f7 dd e6 3e 79 6e 21 be 94 f2 1e 3e
       0.17133126 0.4509122 -0.15764798 0.15522224
000370 07 5a 4d be 44 46 38 be 93 5b 23 3e bf 5a 34 3f
       -0.20053874 -0.17995554 0.15952902 0.7045097
000380 fe 61 19 be 30 44 3b be f8 08 34 be da 03 56 be
       -0.14978787 -0.1828773 -0.17581546 -0.20899907
000390 64 0a 48 3e b8 03 1f be 3c 8d 9b 38 02 64 2c be
       0.19535214 -0.15528762 7.417283e-05 -0.16835025
0003a0 50 11 41 be 93 87 3a be 56 3b e8 3e c9 b4 03 3f
       -0.1885426 -0.1821578 0.4535777 0.5144773
0003b0 27 1b 31 be 3a b4 0d 3e d1 02 d8 3f 8e ec 14 3e
       -0.17295514 0.13838282 1.687586 0.14543363
0003c0 70 a0 0e 3e 11 6e db be 3c 0a 3c be 15 f4 5f 3f
       0.1392839 -0.42857412 -0.18363279 0.87481815
0003d0 f4 14 f9 38 b2 3e 1b be 56 36 e0 3e 3d cd 10 3e
       0.00011877148 -0.15160635 0.43791455 0.14140792
0003e0 4b f7 0a 3e 52 26 ea bd 9b e1 38 be 26 11 19 be
       0.13570897 -0.1143309 -0.18054812 -0.14947948
0003f0 4a ab e6 bc aa 1b 27 3f 88 9e 2a be 52 d4 38 3f
       -0.028157849 0.65276587 -0.16662037 0.72198975

layers.4.bias f4 [4]
000000 41 e6 3c bd eb ec 88 3d 5b 25 63 bd 89 22 ac bd
       -0.046118025 0.066858135 -0.055455547 -0.084050246
